Assets/DungeonEscape-2008.onnx (onnx, 470155 bytes, 6 tensors)

action_model._discrete_distribution.branches.0.bias f4 [4]
0	0x00000000	0.0
1	0x00000000	0.0
2	0x00000000	0.0
3	0x00000000	0.0

action_model._discrete_distribution.branches.0.weight f4 [4, 256]
0	0x3c3474da	0.011014188
1	0xbc4afaa5	-0.01238886
2	0x3bba2893	0.0056811064
3	0xbbe7061d	-0.0070502893
4	0xbb359e48	-0.0027712751
5	0x3b8b4420	0.0042500645
6	0xbbee1c45	-0.0072665536
7	0xb9710ae0	-0.00022987602
8	0xbb9962c3	-0.004680963
9	0xbbfe346f	-0.0077577154
10	0xbb911050	-0.0044269934
11	0x3999f1e7	0.00029362665
12	0xbba9739f	-0.005171254
13	0x3b4d07d5	0.0031285186
14	0x3c1d5ef4	0.009605158
15	0x3ad22b9f	0.0016034729
16	0x3bb6c4ac	0.0055776443
17	0x3c1950a2	0.009357603
18	0x3c20f493	0.009823936
19	0xbae772e0	-0.0017658137
20	0x3c1a718e	0.009426488
21	0x3b507af7	0.0031811574
22	0xbbcdc91f	-0.006280079
23	0xbbc5115a	-0.0060140314
24	0x3bd3dc1f	0.0064654495
25	0x3b5caa97	0.0033671015
26	0x3af3f6a3	0.0018612932
27	0xbbf802fb	-0.0075687147
28	0xbb65377d	-0.00349757
29	0x3c64df82	0.013969304
30	0x3b337b7c	0.0027386835
31	0x3be0db9b	0.0068621165
32	0x3b3cd316	0.002881234
33	0x3c371f02	0.011176826
34	0xbb09ae1a	-0.0021008314
35	0x3c07b57d	0.008283016
36	0xbac28f3f	-0.0014843716
37	0x3bc20270	0.0059207007
38	0xbae1a69d	-0.0017215792
39	0xbc105fd0	-0.008811906
40	0x3be16477	0.0068784314
41	0xbab3194b	-0.0013664154
42	0x3b93c3a2	0.0045094052
43	0xbb732db2	-0.0037106094
44	0xbabef4a3	-0.0014568757
45	0x3c0f758c	0.008756053
46	0xbb548fef	-0.0032434424
47	0x3b3a737e	0.0028450186
48	0xbbaeb61b	-0.0053317673
49	0xbae18e4b	-0.0017208544
50	0x3b9b34eb	0.004736533
51	0x3b4ea04a	0.0031528645
52	0x3ad11858	0.001595269
53	0xbc01d87c	-0.007925149
54	0xbae091a0	-0.0017133243
55	0xbb93004f	-0.004486121
56	0xbbd363d5	-0.00645111
57	0xbbbf3565	-0.0058352225
58	0xb95d57c5	-0.00021108899
59	0x374e0de3	1.228179e-05
60	0x3b30e1c3	0.0026990033
61	0x3ba99490	0.0051751807
62	0x3b49b253	0.0030776456
63	0x3ade3d17	0.0016955462
64	0x3b143017	0.0022611672
65	0x3b312cf2	0.0027034846
66	0xbbdef5cd	-0.006804204
67	0x3bf4b61a	0.0074679973
68	0x3c0ac207	0.008469111
69	0xba77a2d8	-0.0009446568
70	0x3c5ec80d	0.0135975005
71	0xb9a7b2c5	-0.00031985916
72	0x3b042636	0.0020164377
73	0xbc06bfaf	-0.008224412
74	0x3b0e054a	0.0021670633
75	0x3c35fc6b	0.011107544
76	0x3ade6b78	0.0016969284
77	0xbc01308b	-0.007885109
78	0x3b025367	0.0019886137
79	0xbae5d288	-0.0017534057
80	0xbc498674	-0.0123001225
81	0x3a9f4ba3	0.0012153279
82	0x3c8c1f87	0.017104877
83	0xbb38234c	-0.002809721
84	0xbbeb1acd	-0.0071748258
85	0x3b4c1bd3	0.0031144514
86	0x3aca0e43	0.0015415627
87	0x3b1caf86	0.002390833
88	0xbb98efb5	-0.004667247
89	0x3a01951f	0.000494318
90	0x3cb975f7	0.022639258
91	0xbbd1aa25	-0.0063984566
92	0xbb30e743	-0.0026993311
93	0x3a06e3b2	0.00051456236
94	0xbbd517a3	-0.006503062
95	0xbc38a88f	-0.011270656
96	0xbb93bf93	-0.0045089214
97	0x3a85182f	0.0010154302
98	0xbc674e12	-0.0141177345
99	0x3a96618e	0.0011473165
100	0x3bba931d	0.005693807
101	0x3c169ceb	0.009192686
102	0xbbd580d3	-0.006515601
103	0x3c1d2dd9	0.00959345
104	0x3b38469b	0.0028118256
105	0xbbb768f3	-0.0055972277
106	0xbbee2aba	-0.007268277
107	0x3ba157ef	0.0049238126
108	0x3ba80edf	0.005128726
109	0xbc0ce184	-0.008598689
110	0x3b12678b	0.0022339548
111	0x3b9f0f0e	0.0048540896
112	0xbac36eee	-0.0014910379
113	0xbc046913	-0.008081692
114	0x39a27dfa	0.00030992908
115	0x3b9b5649	0.0047405106
116	0x3b91d893	0.0044508665
117	0xba535082	-0.0008061008
118	0x3a47774f	0.0007609026
119	0x3be0c55d	0.006859465
120	0xbaf3fa25	-0.0018613978
121	0xbc0a82e3	-0.008454057
122	0x39d82e3a	0.00041233172
123	0x3b14a3e0	0.0022680685
124	0xb9f535a8	-0.00046770019
125	0xbb0f9a4b	-0.0021912034
126	0xbb7d36df	-0.0038637442
127	0xbbbd360f	-0.0057742666
128	0x3a024867	0.0004969895
129	0xbb115a3b	-0.0022179026
130	0x3a8d2ccf	0.00107708
131	0xbb478d46	-0.0030449196
132	0x3bbbbabb	0.005729047
133	0xbc084b2d	-0.008318705
134	0x39f30a25	0.0004635613
135	0x3998a57e	0.00029115
136	0x3b2eab73	0.0026652485
137	0xbab852f4	-0.0014062808
138	0x3bde14fd	0.0067774043
139	0x3ab3c623	0.0013715666
140	0xbca49e49	-0.020095007
141	0xbbad5397	-0.0052895057
142	0xbad3a27a	-0.0016146444
143	0x3b816678	0.003948983
144	0x39e3976a	0.00043409626
145	0xbc0b13c9	-0.008488604
146	0x3c0631ef	0.008190616
147	0x3c8a6ec6	0.016898524
148	0xbb3153af	-0.0027057936
149	0xbc2a9098	-0.01041045
150	0xbb760762	-0.0037541022
151	0xbc33bada	-0.010969842
152	0xbb85c441	-0.004082233
153	0xbbf9ea72	-0.007626825
154	0x3b24a2e4	0.0025121504
155	0x3bf4e2a0	0.007473305
156	0xbacb2e06	-0.0015501387
157	0xbc1ae6e1	-0.00945446
158	0x3ba37085	0.0049877786
159	0x3b5bef75	0.0033559476
160	0xb9b647e3	-0.00034767305
161	0xbb321ba2	-0.0027177115
162	0x3c2f64dc	0.010705199
163	0xbc153977	-0.009107939
164	0xbc10453b	-0.008805568
165	0xbb82a6fb	-0.003987191
166	0xbb367965	-0.0027843353
167	0xbb8c3d3f	-0.004279762
168	0xbaa4781b	-0.0012548001
169	0xbae7ee63	-0.0017694946
170	0xbb0fb5a9	-0.0021928346
171	0xbb935c07	-0.0044970545
172	0x3b90b3e8	0.0044159777
173	0xba78671b	-0.0009475813
174	0xbacf6c4f	-0.0015825125
175	0xbbb993b5	-0.00566336
176	0x3b40d73f	0.0029425172
177	0x3bad22f7	0.005283709
178	0xbab8db6c	-0.0014103479
179	0xbbe3aab8	-0.0069478415
180	0xbc1c8e00	-0.00955534
181	0x3c17a312	0.009255188
182	0x3c59441f	0.01326087
183	0xbb1c42f2	-0.0023843613
184	0xbbbe2c84	-0.0058036465
185	0xbb1c8a87	-0.002388628
186	0x3bcfe9a0	0.006344989
187	0x3b0faff8	0.0021924954
188	0x3b451e62	0.0030077924
189	0xbb5a2b8a	-0.0033290111
190	0x3bc1464a	0.0058982717
191	0xbbf79660	-0.007555768
192	0xbc1a9de3	-0.009437057
193	0x3b651d7d	0.0034960203
194	0x3b6cbd1d	0.0036123462
195	0x3ad24028	0.0016040849
196	0xbab3ed42	-0.0013727325
197	0x3b695b9d	0.0035607584
198	0x3a69ad7b	0.0008914095
199	0xbc31f10d	-0.010860694
200	0x3b2459d9	0.0025077967
201	0xbc4f698f	-0.0126594445
202	0x3bc69475	0.006060178
203	0x3aca8047	0.0015449607
204	0xbbec5042	-0.007211716
205	0xbbdbacba	-0.00670394
206	0xbc1fd33f	-0.009754955
207	0xbb2f0320	-0.0026704744
208	0xbc875c03	-0.016523367
209	0xbb6b6e9f	-0.003592409
210	0x3b793be5	0.0038030085
211	0x3b470247	0.0030366348
212	0x39179524	0.00014456041
213	0x3c0352b5	0.008015324
214	0xbc8adee6	-0.01695199
215	0x3bb5bc86	0.0055461554
216	0xbb8611ab	-0.0040914617
217	0x3be76e1a	0.0070626857
218	0xbc36892b	-0.011141102
219	0x3bf0ca65	0.007348346
220	0x3ba17728	0.0049275346
221	0xbc733757	-0.014844737
222	0xbb211b43	-0.00245829
223	0x3b4c828f	0.0031205749
224	0xbc54248d	-0.0129481675
225	0xbc03a32e	-0.008034511
226	0xbbda4e88	-0.0066621937
227	0x3c151be3	0.009100887
228	0xbbe6448b	-0.007027214
229	0x3aa93876	0.0012910503
230	0x3b167ca3	0.0022962473
231	0x3b6f5c8d	0.003652367
232	0x3ad74973	0.0016425088
233	0xb922355b	-0.000154694
234	0xbbce9c15	-0.0063052275
235	0xbb76d8ef	-0.0037665924
236	0x3bbaae87	0.005697075
237	0xbb83609b	-0.004009319
238	0xbb75dd57	-0.0037515962
239	0x3a83e7ec	0.0010063625
240	0xbc071de2	-0.008246871
241	0xbbb3680a	-0.005475049
242	0xbaa684cf	-0.0012704375
243	0xbb9fcd04	-0.0048767347
244	0x3c230f8d	0.009952438
245	0xbb9338c1	-0.0044928496
246	0xbbf7b635	-0.0075595626
247	0xbb1c631c	-0.0023862785
248	0x3baa4df2	0.00519728
249	0xbaa53da9	-0.0012606877
250	0x3b1b8db0	0.0023735575
251	0x3b92f5b3	0.004484856
252	0xba437403	-0.0007455947
253	0xba4eb41b	-0.0007885114
254	0x3ba4bf3f	0.005027681
255	0xbb5a9a10	-0.0033355989

network_body._body_endoder.seq_layers.0.bias f4 [256]
0	0x00000000	0.0
1	0x00000000	0.0
2	0x00000000	0.0
3	0x00000000	0.0
4	0x00000000	0.0
5	0x00000000	0.0
6	0x00000000	0.0
7	0x00000000	0.0
8	0x00000000	0.0
9	0x00000000	0.0
10	0x00000000	0.0
11	0x00000000	0.0
12	0x00000000	0.0
13	0x00000000	0.0
14	0x00000000	0.0
15	0x00000000	0.0
16	0x00000000	0.0
17	0x00000000	0.0
18	0x00000000	0.0
19	0x00000000	0.0
20	0x00000000	0.0
21	0x00000000	0.0
22	0x00000000	0.0
23	0x00000000	0.0
24	0x00000000	0.0
25	0x00000000	0.0
26	0x00000000	0.0
27	0x00000000	0.0
28	0x00000000	0.0
29	0x00000000	0.0
30	0x00000000	0.0
31	0x00000000	0.0
32	0x00000000	0.0
33	0x00000000	0.0
34	0x00000000	0.0
35	0x00000000	0.0
36	0x00000000	0.0
37	0x00000000	0.0
38	0x00000000	0.0
39	0x00000000	0.0
40	0x00000000	0.0
41	0x00000000	0.0
42	0x00000000	0.0
43	0x00000000	0.0
44	0x00000000	0.0
45	0x00000000	0.0
46	0x00000000	0.0
47	0x00000000	0.0
48	0x00000000	0.0
49	0x00000000	0.0
50	0x00000000	0.0
51	0x00000000	0.0
52	0x00000000	0.0
53	0x00000000	0.0
54	0x00000000	0.0
55	0x00000000	0.0
56	0x00000000	0.0
57	0x00000000	0.0
58	0x00000000	0.0
59	0x00000000	0.0
60	0x00000000	0.0
61	0x00000000	0.0
62	0x00000000	0.0
63	0x00000000	0.0
64	0x00000000	0.0
65	0x00000000	0.0
66	0x00000000	0.0
67	0x00000000	0.0
68	0x00000000	0.0
69	0x00000000	0.0
70	0x00000000	0.0
71	0x00000000	0.0
72	0x00000000	0.0
73	0x00000000	0.0
74	0x00000000	0.0
75	0x00000000	0.0
76	0x00000000	0.0
77	0x00000000	0.0
78	0x00000000	0.0
79	0x00000000	0.0
80	0x00000000	0.0
81	0x00000000	0.0
82	0x00000000	0.0
83	0x00000000	0.0
84	0x00000000	0.0
85	0x00000000	0.0
86	0x00000000	0.0
87	0x00000000	0.0
88	0x00000000	0.0
89	0x00000000	0.0
90	0x00000000	0.0
91	0x00000000	0.0
92	0x00000000	0.0
93	0x00000000	0.0
94	0x00000000	0.0
95	0x00000000	0.0
96	0x00000000	0.0
97	0x00000000	0.0
98	0x00000000	0.0
99	0x00000000	0.0
100	0x00000000	0.0
101	0x00000000	0.0
102	0x00000000	0.0
103	0x00000000	0.0
104	0x00000000	0.0
105	0x00000000	0.0
106	0x00000000	0.0
107	0x00000000	0.0
108	0x00000000	0.0
109	0x00000000	0.0
110	0x00000000	0.0
111	0x00000000	0.0
112	0x00000000	0.0
113	0x00000000	0.0
114	0x00000000	0.0
115	0x00000000	0.0
116	0x00000000	0.0
117	0x00000000	0.0
118	0x00000000	0.0
119	0x00000000	0.0
120	0x00000000	0.0
121	0x00000000	0.0
122	0x00000000	0.0
123	0x00000000	0.0
124	0x00000000	0.0
125	0x00000000	0.0
126	0x00000000	0.0
127	0x00000000	0.0
128	0x00000000	0.0
129	0x00000000	0.0
130	0x00000000	0.0
131	0x00000000	0.0
132	0x00000000	0.0
133	0x00000000	0.0
134	0x00000000	0.0
135	0x00000000	0.0
136	0x00000000	0.0
137	0x00000000	0.0
138	0x00000000	0.0
139	0x00000000	0.0
140	0x00000000	0.0
141	0x00000000	0.0
142	0x00000000	0.0
143	0x00000000	0.0
144	0x00000000	0.0
145	0x00000000	0.0
146	0x00000000	0.0
147	0x00000000	0.0
148	0x00000000	0.0
149	0x00000000	0.0
150	0x00000000	0.0
151	0x00000000	0.0
152	0x00000000	0.0
153	0x00000000	0.0
154	0x00000000	0.0
155	0x00000000	0.0
156	0x00000000	0.0
157	0x00000000	0.0
158	0x00000000	0.0
159	0x00000000	0.0
160	0x00000000	0.0
161	0x00000000	0.0
162	0x00000000	0.0
163	0x00000000	0.0
164	0x00000000	0.0
165	0x00000000	0.0
166	0x00000000	0.0
167	0x00000000	0.0
168	0x00000000	0.0
169	0x00000000	0.0
170	0x00000000	0.0
171	0x00000000	0.0
172	0x00000000	0.0
173	0x00000000	0.0
174	0x00000000	0.0
175	0x00000000	0.0
176	0x00000000	0.0
177	0x00000000	0.0
178	0x00000000	0.0
179	0x00000000	0.0
180	0x00000000	0.0
181	0x00000000	0.0
182	0x00000000	0.0
183	0x00000000	0.0
184	0x00000000	0.0
185	0x00000000	0.0
186	0x00000000	0.0
187	0x00000000	0.0
188	0x00000000	0.0
189	0x00000000	0.0
190	0x00000000	0.0
191	0x00000000	0.0
192	0x00000000	0.0
193	0x00000000	0.0
194	0x00000000	0.0
195	0x00000000	0.0
196	0x00000000	0.0
197	0x00000000	0.0
198	0x00000000	0.0
199	0x00000000	0.0
200	0x00000000	0.0
201	0x00000000	0.0
202	0x00000000	0.0
203	0x00000000	0.0
204	0x00000000	0.0
205	0x00000000	0.0
206	0x00000000	0.0
207	0x00000000	0.0
208	0x00000000	0.0
209	0x00000000	0.0
210	0x00000000	0.0
211	0x00000000	0.0
212	0x00000000	0.0
213	0x00000000	0.0
214	0x00000000	0.0
215	0x00000000	0.0
216	0x00000000	0.0
217	0x00000000	0.0
218	0x00000000	0.0
219	0x00000000	0.0
220	0x00000000	0.0
221	0x00000000	0.0
222	0x00000000	0.0
223	0x00000000	0.0
224	0x00000000	0.0
225	0x00000000	0.0
226	0x00000000	0.0
227	0x00000000	0.0
228	0x00000000	0.0
229	0x00000000	0.0
230	0x00000000	0.0
231	0x00000000	0.0
232	0x00000000	0.0
233	0x00000000	0.0
234	0x00000000	0.0
235	0x00000000	0.0
236	0x00000000	0.0
237	0x00000000	0.0
238	0x00000000	0.0
239	0x00000000	0.0
240	0x00000000	0.0
241	0x00000000	0.0
242	0x00000000	0.0
243	0x00000000	0.0
244	0x00000000	0.0
245	0x00000000	0.0
246	0x00000000	0.0
247	0x00000000	0.0
248	0x00000000	0.0
249	0x00000000	0.0
250	0x00000000	0.0
251	0x00000000	0.0
252	0x00000000	0.0
253	0x00000000	0.0
254	0x00000000	0.0
255	0x00000000	0.0

network_body._body_endoder.seq_layers.0.weight f4 [256, 195]
0	0xbc7728db	-0.015085424
1	0x3d2b4c45	0.041820783
2	0x3cee82c1	0.029115083
3	0xbc744c4c	-0.014910769
4	0x3d714ff3	0.058914136
5	0xbce483fa	-0.027894963
6	0xbd09f108	-0.03367713
7	0x3d0101da	0.031495906
8	0xbd8b50fd	-0.06802557
9	0xbd4f0b3c	-0.050547823
10	0x3dab7123	0.083711885
11	0x3dd11046	0.10208182
12	0xbd9d83a0	-0.07691121
13	0x3db2caa3	0.08730056
14	0xbe12d3a8	-0.14338553
15	0x3cacc17b	0.021088352
16	0xbdd9499f	-0.10609745
17	0xbbbe9fd2	-0.005817392
18	0xbdac37a6	-0.084090516
19	0x3dbb45f0	0.09144199
20	0x3dccf303	0.10007288
21	0xbd86dabb	-0.06584688
22	0x3d523cc9	0.0513275
23	0xbdf696f6	-0.12040512
24	0xbd125235	-0.03572293
25	0xbc5b475a	-0.013383711
26	0xbd4256a1	-0.047445897
27	0xbe163162	-0.14667276
28	0xbd218fe6	-0.039443873
29	0xbd338e6e	-0.043837003
30	0x3d16b6ce	0.03679543
31	0xbcb64a11	-0.022252114
32	0x3c87779a	0.016536523
33	0xbd4b5221	-0.04963887
34	0x3d8865fe	0.066600785
35	0xbc5e4650	-0.0135665685
36	0xbd612201	-0.05496407
37	0x3d88b987	0.066760115
38	0x3c80718f	0.015679149
39	0x3d4da6b2	0.0502078
40	0xbd09da4f	-0.03365546
41	0x3aac033f	0.0013123526
42	0x3e04fd03	0.12987141
43	0x3d3d5910	0.046227515
44	0x3d7ee138	0.062226504
45	0x3b0ae35a	0.002119264
46	0xbc83fce3	-0.016111797
47	0x3daaff6b	0.08349498
48	0xb9bb54f0	-0.00035730703
49	0xbd222d71	-0.039594118
50	0xbd6a7933	-0.05724449
51	0x3dabaa9c	0.083821505
52	0xbd887e76	-0.066647455
53	0xbc17f93c	-0.009275731
54	0xbe22c51d	-0.15895505
55	0x3b5364ec	0.00322562
56	0x3dcb8833	0.09938087
57	0x3d317c3a	0.043331362
58	0xbba403bb	-0.0050053275
59	0xbc4bd693	-0.012441295
60	0xbd8fca85	-0.070210494
61	0x3d68e43a	0.05685828
62	0xbbe7dc77	-0.007075842
63	0x3b2f119c	0.0026713377
64	0x3d625ad5	0.055262405
65	0xbd27c88b	-0.040962737
66	0x3d511f2a	0.05105511
67	0x3d3e7db4	0.0465066
68	0x3da2bc6d	0.079460956
69	0xbe28d055	-0.16485722
70	0x3dc69b2e	0.09697567
71	0xbd6701da	-0.05639825
72	0x3dd4239e	0.10358356
73	0x3da788a7	0.08180361
74	0xbceaec4a	-0.028677125
75	0xbe129f99	-0.14318694
76	0x3dc0e8e3	0.094194196
77	0x3c6b3f3f	0.014358341
78	0xbe267087	-0.16253863
79	0x3d86342e	0.06552921
80	0x3d81f654	0.063458115
81	0x3d390eff	0.045180317
82	0xbd6e20c4	-0.058136716
83	0x3d7dcc4e	0.06196242
84	0x3dc4c56f	0.0960797
85	0xbd9361a4	-0.07196358
86	0x3c8b1a07	0.016980184
87	0xbcaa9480	-0.020822763
88	0x3cbd7563	0.023127263
89	0xbd1368c5	-0.035988588
90	0x3ce5991a	0.028027106
91	0x3cd7711c	0.026299052
92	0x3d60b1f6	0.054857217
93	0xbd913fb2	-0.07092227
94	0xbc8b7779	-0.017024742
95	0x3c59ae67	0.01328621
96	0x3d9f5a79	0.07780928
97	0x3ad00652	0.0015871024
98	0xbd3d14ee	-0.04616254
99	0xbc67764a	-0.014127323
100	0xbdc3f63a	-0.09568448
101	0x3d8e55dd	0.06949971
102	0x3d1ac58a	0.037786044
103	0xbdf59134	-0.11990586
104	0xbda2750e	-0.07932483
105	0xbd70ae63	-0.058760058
106	0x3d1b8b91	0.037974898
107	0xbe021ab2	-0.12705496
108	0xbd5f8e14	-0.054578856
109	0x3a8bb5a6	0.0010658994
110	0xbd885dd7	-0.066585235
111	0x3c95bec6	0.018279444
112	0xbddab52b	-0.10679086
113	0xbdb2a79c	-0.08723375
114	0xbce06320	-0.027391016
115	0xbdb947d7	-0.090469055
116	0x3b92400c	0.0044632014
117	0xbd47febd	-0.04882692
118	0x3de6d4b6	0.1127104
119	0xbc90a6c2	-0.017657641
120	0x3c44058b	0.011964212
121	0xbdc53174	-0.09628573
122	0xbdf5bf04	-0.11999324
123	0x3bb93624	0.005652206
124	0xbdac107a	-0.0840158
125	0x3d314756	0.043280922
126	0xbdd634dc	-0.10459301
127	0xbd4ab9f5	-0.04949375
128	0x3c372789	0.0111788595
129	0x3c6e8449	0.014557906
130	0x3c570f70	0.013126239
131	0xbcbd47be	-0.023105498
132	0xbc0762ef	-0.008263334
133	0xbd57362b	-0.052541893
134	0xbdb11dc3	-0.08648255
135	0xbcb77ecf	-0.022399334
136	0xbcea3d04	-0.028593548
137	0xbd01c631	-0.03168315
138	0x3b973469	0.004614402
139	0xbb7f2aac	-0.0038935347
140	0xbd306b0b	-0.043070834
141	0xbc93a2fc	-0.018022053
142	0xbd4ab976	-0.049493276
143	0x3cb90de8	0.022589639
144	0x3df9c819	0.12196369
145	0xbd5c5d8d	-0.053800154
146	0xbe2c3555	-0.1681722
147	0xbc2dfe5f	-0.010619729
148	0xbde8f916	-0.11375634
149	0x3dc5e723	0.096632265
150	0x3d7279b1	0.059198085
151	0x3d820371	0.06348313
152	0xbe07bbf9	-0.132553
153	0xba70e77f	-0.0009189769
154	0xbdb78d03	-0.08962443
155	0x3c56b8e0	0.013105601
156	0x3d7a3991	0.061090056
157	0xbdae0233	-0.08496513
158	0x3cac2eda	0.021018434
159	0xbceb5d53	-0.028731024
160	0x3cca77f6	0.024715405
161	0x3ba4d436	0.0050301803
162	0x3dc9fab0	0.09862268
163	0xbcffc063	-0.031219667
164	0xbd72af70	-0.05924934
165	0xbd914a2b	-0.070942245
166	0xbdc6a7c5	-0.09699968
167	0xbd54f533	-0.051991653
168	0x3aa48fe7	0.0012555093
169	0xbdd1ac9a	-0.10237999
170	0x3bded381	0.0068001156
171	0x3dbebd9a	0.093135074
172	0xbc7a4ee2	-0.015277596
173	0xbd2197f1	-0.039451543
174	0x3dc48739	0.09596104
175	0xbdf8c17c	-0.12146279
176	0x3dab5b0a	0.08366974
177	0xbd559730	-0.052146137
178	0x3d3aabc9	0.045573983
179	0xbdb5ad17	-0.08870905
180	0xbd500898	-0.050789446
181	0xbd358c19	-0.04432306
182	0x3d0d36e1	0.034476165
183	0xbdb2ce0c	-0.087307066
184	0xbda12dc9	-0.07870061
185	0xbc3c74f8	-0.011502497
186	0x3e233308	0.15937436
187	0xbd54b2a8	-0.051928192
188	0x3d903000	0.07040405
189	0xbcb5966e	-0.022166457
190	0xbe03e147	-0.12878905
191	0xbdb1e2bb	-0.086858235
192	0xbd16d49a	-0.036823846
193	0x3d5401fc	0.051759705
194	0x3cdf0b4d	0.027227068
195	0xbd2a4709	-0.04157165
196	0xbc4a154e	-0.012334181
197	0x3c86ee63	0.016471094
198	0x3cd94cfc	0.026525967
199	0x3d3e5616	0.046468817
200	0x3dc7d793	0.097579144
201	0xbdd27225	-0.102756776
202	0x3c84d760	0.01621598
203	0xbdad5afa	-0.08464618
204	0x3e45a644	0.19301707
205	0xbd9dfbb5	-0.07714025
206	0x3d1cb991	0.038262907
207	0x39eaf3c1	0.0004481357
208	0x3cc850f0	0.024452657
209	0xbe350221	-0.17676593
210	0x3d8f1af1	0.069875605
211	0xbd8a7033	-0.067596816
212	0x3a1a8783	0.00058948266
213	0xbc1eac27	-0.009684599
214	0x3b002c22	0.0019557555
215	0x3c199ddc	0.0093760155
216	0xbd15d0b9	-0.036576007
217	0xbc23d3e0	-0.009999245
218	0xbd0f4f3c	-0.034987673
219	0x3e21f125	0.15814646
220	0xbd1d50d8	-0.038407177
221	0x3cdfbc10	0.027311355
222	0x3d8778ae	0.06614815
223	0xbd69ca84	-0.0570779
224	0xbda4d49b	-0.08048364
225	0x3d662e96	0.05619677
226	0xbcbdcd43	-0.023169165
227	0x3de059f5	0.10954658
228	0x3e7cdd0a	0.24693695
229	0x3aa82242	0.0012827592
230	0x3d99b543	0.07505276
231	0xbdac821e	-0.084232554
232	0x3d98c0b6	0.07458632
233	0x3c9b7ecc	0.01898136
234	0xba4c60e9	-0.0007796423
235	0x3cb1f500	0.02172327
236	0x3d03527e	0.032061093
237	0xbd8625a6	-0.065501496
238	0xbcba42ef	-0.022736995
239	0x3d9f68f8	0.07783693
240	0xbcc4ba1d	-0.024014527
241	0x3c454244	0.012039725
242	0x3c72f695	0.014829298
243	0x3e0ea731	0.13930966
244	0x3d9d9f77	0.07696431
245	0xbd7d46a1	-0.061834935
246	0xbd54170d	-0.051779795
247	0x3da4a1bd	0.08038662
248	0x3d0aa54c	0.033849046
249	0xbca72c8d	-0.020406986
250	0x3c17f385	0.009274368
251	0x3b29f734	0.0025934698
252	0xbd80dc3e	-0.06292008
253	0x3dad2efb	0.084562264
254	0x3d9dcf67	0.077055745
255	0x3d26149a	0.04054699

network_body._body_endoder.seq_layers.2.bias f4 [256]
0	0x00000000	0.0
1	0x00000000	0.0
2	0x00000000	0.0
3	0x00000000	0.0
4	0x00000000	0.0
5	0x00000000	0.0
6	0x00000000	0.0
7	0x00000000	0.0
8	0x00000000	0.0
9	0x00000000	0.0
10	0x00000000	0.0
11	0x00000000	0.0
12	0x00000000	0.0
13	0x00000000	0.0
14	0x00000000	0.0
15	0x00000000	0.0
16	0x00000000	0.0
17	0x00000000	0.0
18	0x00000000	0.0
19	0x00000000	0.0
20	0x00000000	0.0
21	0x00000000	0.0
22	0x00000000	0.0
23	0x00000000	0.0
24	0x00000000	0.0
25	0x00000000	0.0
26	0x00000000	0.0
27	0x00000000	0.0
28	0x00000000	0.0
29	0x00000000	0.0
30	0x00000000	0.0
31	0x00000000	0.0
32	0x00000000	0.0
33	0x00000000	0.0
34	0x00000000	0.0
35	0x00000000	0.0
36	0x00000000	0.0
37	0x00000000	0.0
38	0x00000000	0.0
39	0x00000000	0.0
40	0x00000000	0.0
41	0x00000000	0.0
42	0x00000000	0.0
43	0x00000000	0.0
44	0x00000000	0.0
45	0x00000000	0.0
46	0x00000000	0.0
47	0x00000000	0.0
48	0x00000000	0.0
49	0x00000000	0.0
50	0x00000000	0.0
51	0x00000000	0.0
52	0x00000000	0.0
53	0x00000000	0.0
54	0x00000000	0.0
55	0x00000000	0.0
56	0x00000000	0.0
57	0x00000000	0.0
58	0x00000000	0.0
59	0x00000000	0.0
60	0x00000000	0.0
61	0x00000000	0.0
62	0x00000000	0.0
63	0x00000000	0.0
64	0x00000000	0.0
65	0x00000000	0.0
66	0x00000000	0.0
67	0x00000000	0.0
68	0x00000000	0.0
69	0x00000000	0.0
70	0x00000000	0.0
71	0x00000000	0.0
72	0x00000000	0.0
73	0x00000000	0.0
74	0x00000000	0.0
75	0x00000000	0.0
76	0x00000000	0.0
77	0x00000000	0.0
78	0x00000000	0.0
79	0x00000000	0.0
80	0x00000000	0.0
81	0x00000000	0.0
82	0x00000000	0.0
83	0x00000000	0.0
84	0x00000000	0.0
85	0x00000000	0.0
86	0x00000000	0.0
87	0x00000000	0.0
88	0x00000000	0.0
89	0x00000000	0.0
90	0x00000000	0.0
91	0x00000000	0.0
92	0x00000000	0.0
93	0x00000000	0.0
94	0x00000000	0.0
95	0x00000000	0.0
96	0x00000000	0.0
97	0x00000000	0.0
98	0x00000000	0.0
99	0x00000000	0.0
100	0x00000000	0.0
101	0x00000000	0.0
102	0x00000000	0.0
103	0x00000000	0.0
104	0x00000000	0.0
105	0x00000000	0.0
106	0x00000000	0.0
107	0x00000000	0.0
108	0x00000000	0.0
109	0x00000000	0.0
110	0x00000000	0.0
111	0x00000000	0.0
112	0x00000000	0.0
113	0x00000000	0.0
114	0x00000000	0.0
115	0x00000000	0.0
116	0x00000000	0.0
117	0x00000000	0.0
118	0x00000000	0.0
119	0x00000000	0.0
120	0x00000000	0.0
121	0x00000000	0.0
122	0x00000000	0.0
123	0x00000000	0.0
124	0x00000000	0.0
125	0x00000000	0.0
126	0x00000000	0.0
127	0x00000000	0.0
128	0x00000000	0.0
129	0x00000000	0.0
130	0x00000000	0.0
131	0x00000000	0.0
132	0x00000000	0.0
133	0x00000000	0.0
134	0x00000000	0.0
135	0x00000000	0.0
136	0x00000000	0.0
137	0x00000000	0.0
138	0x00000000	0.0
139	0x00000000	0.0
140	0x00000000	0.0
141	0x00000000	0.0
142	0x00000000	0.0
143	0x00000000	0.0
144	0x00000000	0.0
145	0x00000000	0.0
146	0x00000000	0.0
147	0x00000000	0.0
148	0x00000000	0.0
149	0x00000000	0.0
150	0x00000000	0.0
151	0x00000000	0.0
152	0x00000000	0.0
153	0x00000000	0.0
154	0x00000000	0.0
155	0x00000000	0.0
156	0x00000000	0.0
157	0x00000000	0.0
158	0x00000000	0.0
159	0x00000000	0.0
160	0x00000000	0.0
161	0x00000000	0.0
162	0x00000000	0.0
163	0x00000000	0.0
164	0x00000000	0.0
165	0x00000000	0.0
166	0x00000000	0.0
167	0x00000000	0.0
168	0x00000000	0.0
169	0x00000000	0.0
170	0x00000000	0.0
171	0x00000000	0.0
172	0x00000000	0.0
173	0x00000000	0.0
174	0x00000000	0.0
175	0x00000000	0.0
176	0x00000000	0.0
177	0x00000000	0.0
178	0x00000000	0.0
179	0x00000000	0.0
180	0x00000000	0.0
181	0x00000000	0.0
182	0x00000000	0.0
183	0x00000000	0.0
184	0x00000000	0.0
185	0x00000000	0.0
186	0x00000000	0.0
187	0x00000000	0.0
188	0x00000000	0.0
189	0x00000000	0.0
190	0x00000000	0.0
191	0x00000000	0.0
192	0x00000000	0.0
193	0x00000000	0.0
194	0x00000000	0.0
195	0x00000000	0.0
196	0x00000000	0.0
197	0x00000000	0.0
198	0x00000000	0.0
199	0x00000000	0.0
200	0x00000000	0.0
201	0x00000000	0.0
202	0x00000000	0.0
203	0x00000000	0.0
204	0x00000000	0.0
205	0x00000000	0.0
206	0x00000000	0.0
207	0x00000000	0.0
208	0x00000000	0.0
209	0x00000000	0.0
210	0x00000000	0.0
211	0x00000000	0.0
212	0x00000000	0.0
213	0x00000000	0.0
214	0x00000000	0.0
215	0x00000000	0.0
216	0x00000000	0.0
217	0x00000000	0.0
218	0x00000000	0.0
219	0x00000000	0.0
220	0x00000000	0.0
221	0x00000000	0.0
222	0x00000000	0.0
223	0x00000000	0.0
224	0x00000000	0.0
225	0x00000000	0.0
226	0x00000000	0.0
227	0x00000000	0.0
228	0x00000000	0.0
229	0x00000000	0.0
230	0x00000000	0.0
231	0x00000000	0.0
232	0x00000000	0.0
233	0x00000000	0.0
234	0x00000000	0.0
235	0x00000000	0.0
236	0x00000000	0.0
237	0x00000000	0.0
238	0x00000000	0.0
239	0x00000000	0.0
240	0x00000000	0.0
241	0x00000000	0.0
242	0x00000000	0.0
243	0x00000000	0.0
244	0x00000000	0.0
245	0x00000000	0.0
246	0x00000000	0.0
247	0x00000000	0.0
248	0x00000000	0.0
249	0x00000000	0.0
250	0x00000000	0.0
251	0x00000000	0.0
252	0x00000000	0.0
253	0x00000000	0.0
254	0x00000000	0.0
255	0x00000000	0.0

network_body._body_endoder.seq_layers.2.weight f4 [256, 256]
0	0x3ca4db24	0.020124026
1	0xbc3f315d	-0.011669484
2	0x3d225feb	0.039642256
3	0x3d0501c1	0.032472376
4	0xbd85321c	-0.06503698
5	0xbc3d40c7	-0.011551089
6	0xbdf91957	-0.12163036
7	0xbdb8cfc6	-0.09024005
8	0x3e2e5f5c	0.17028564
9	0xbb901cca	-0.004397963
10	0xbd9dc3b1	-0.07703341
11	0x3d154b6e	0.03644889
12	0xbce56888	-0.028003946
13	0xbd47a3cd	-0.048740197
14	0x3d5e3ed4	0.054259136
15	0x3b84c5d2	0.0040519023
16	0xbda361d8	-0.079776466
17	0x3bd5aeae	0.0065210676
18	0x3dcaac9d	0.098962046
19	0xbce69364	-0.028146453
20	0x3bb6adf8	0.005574938
21	0xbb775c0b	-0.003774407
22	0xbcb158c5	-0.021648774
23	0xbc3e9dd2	-0.011634307
24	0xbd052606	-0.032506965
25	0xbd314128	-0.04327503
26	0x3873f2d8	5.816188e-05
27	0xbd991380	-0.074744225
28	0x3d9eaf5a	0.077482894
29	0xbd8787f4	-0.06617728
30	0x3c733b84	0.014845733
31	0xbd3a6665	-0.045507807
32	0x3d253a4a	0.040338792
33	0xbd41d1d6	-0.047319256
34	0x3deeaf56	0.116545364
35	0xbd8fed18	-0.07027644
36	0x3da3e6e4	0.08003023
37	0x3d593296	0.053026758
38	0xbd2882b7	-0.041140284
39	0xbd066aea	-0.032816805
40	0xbc1fe48c	-0.00975908
41	0x3d989f7c	0.07452294
42	0xbd42e277	-0.047579255
43	0xbcc89538	-0.024485216
44	0x3d4a93f6	0.049457513
45	0x3b8eed31	0.0043617715
46	0x3cad0e98	0.021125123
47	0x3d1b16db	0.037863594
48	0x3e11f52c	0.14253682
49	0x3d8794e0	0.066201925
50	0x3e082962	0.13297036
51	0xbc000556	-0.007813772
52	0xbca7a9a6	-0.020466637
53	0xbcf6c51d	-0.030123288
54	0xbd4436cd	-0.047903825
55	0xbb537109	-0.003226342
56	0xbca34d8f	-0.019934444
57	0xbd643846	-0.05571773
58	0xbdc92e8b	-0.098233305
59	0x3d4df150	0.05027896
60	0x3d58da44	0.05294253
61	0x3de3fd22	0.111322656
62	0xbc94627f	-0.018113373
63	0xbda5e0f3	-0.08099546
64	0xbd8dff03	-0.06933405
65	0x3c0502f1	0.008118377
66	0xbdce5b02	-0.10075952
67	0xbd166210	-0.036714613
68	0x3cea9c7b	0.028639069
69	0xbbfa3f05	-0.007636907
70	0x3d8ad08f	0.06778061
71	0x3b9df30c	0.004820233
72	0xbda4ebbb	-0.080527745
73	0x3d938be1	0.07204414
74	0xbd3c5d3e	-0.04598736
75	0x3dd690a3	0.10476806
76	0xbd2e2c5f	-0.042522784
77	0xbc9f6d88	-0.019461408
78	0x3dc0a432	0.09406318
79	0x3e0dc038	0.13842857
80	0xbade0123	-0.0016937595
81	0x3cb8cb82	0.022557978
82	0x3dbc3ff3	0.09191885
83	0x3d125bc4	0.035732046
84	0x3c9b1918	0.018932864
85	0x3ce24652	0.027621422
86	0x3e2f26fa	0.17104712
87	0x3dd71ab4	0.1050314
88	0xbd5230bc	-0.051316008
89	0xbd90adcc	-0.07064399
90	0x3e3413ae	0.17585632
91	0xbc7aed0d	-0.015315306
92	0x3c93bcae	0.018034305
93	0x3d917420	0.07102227
94	0x3da5538e	0.080725774
95	0xbd157e97	-0.03649768
96	0xbd0825f0	-0.033239305
97	0xbdc7d68e	-0.0975772
98	0xbc903856	-0.017604988
99	0x3d0ab558	0.03386435
100	0x3df9469b	0.1217167
101	0x3d4bce07	0.04975703
102	0x3ca1f385	0.01976944
103	0xbcced068	-0.02524586
104	0xbc91b16b	-0.017784795
105	0x3c278eda	0.01022693
106	0xbcea3f57	-0.028594656
107	0x3ac645ca	0.0015127
108	0x3d56c3f4	0.05243297
109	0x3ce57553	0.028010046
110	0xbd8a7827	-0.067611985
111	0x3cce86ba	0.025210727
112	0xbc1e4aca	-0.009661386
113	0xbdf3c944	-0.11903623
114	0x3a1b21ae	0.00059177994
115	0x3d8d43b7	0.06897681
116	0x3c21c978	0.009874694
117	0x3e234cd1	0.15947272
118	0x3b36f46a	0.0027916678
119	0x3d852395	0.06500927
120	0x3d2c3f0d	0.042052317
121	0x3d922cd3	0.07137456
122	0x3c041daf	0.008063718
123	0x3c265305	0.010151629
124	0x3ca60d4c	0.020270012
125	0xbd925c93	-0.071465634
126	0x3ba56ab1	0.005048119
127	0xbcfe0507	-0.031008257
128	0xbc021309	-0.007939109
129	0xbdcde1ec	-0.10052857
130	0x3d23f0ff	0.040024754
131	0x3d32d78b	0.04366259
132	0xbd3821cd	-0.04495411
133	0x3dbbe11d	0.09173796
134	0x3cc4c9b6	0.024021965
135	0x3db77f2d	0.08959804
136	0xbcf1daba	-0.029523242
137	0x3c84041c	0.01611524
138	0x3dd0751a	0.10178585
139	0x3df74435	0.12073556
140	0xbcc746a3	-0.024325674
141	0xbd5c3a87	-0.053766754
142	0x3c8c1d80	0.01710391
143	0x3d2c4824	0.042060986
144	0xbcdd1328	-0.026986673
145	0xbd21d1ab	-0.039506596
146	0x3d8e1c6e	0.06939016
147	0x3b0a33a0	0.00210879
148	0xbd05eab6	-0.03269454
149	0x3d5e16d3	0.054220986
150	0x3cbe4339	0.023225414
151	0xbc32dc33	-0.010916757
152	0xbd205efc	-0.039153084
153	0xbcb58131	-0.02215633
154	0x3cb46fb4	0.02202592
155	0x3d3be6a9	0.04587427
156	0xbbdf569e	-0.0068157455
157	0x3c53d26f	0.012928589
158	0xbb38922b	-0.0028163295
159	0xbb0e5393	-0.0021717295
160	0x3cfcaa63	0.030842965
161	0xbd0bd7de	-0.034141414
162	0x3c6531a5	0.013988887
163	0xbdb49feb	-0.088195644
164	0xbc474b84	-0.012164
165	0x3dc35aaa	0.09538777
166	0xbbb68146	-0.00556961
167	0xbdbc9982	-0.09208967
168	0xbcbb7b5c	-0.02288597
169	0x3d65c6cc	0.05609779
170	0x3aac80ea	0.0013160978
171	0x3baecaaa	0.005334218
172	0x3c5ae9c9	0.013361403
173	0xbd750d94	-0.059827402
174	0xbbcd826f	-0.0062716524
175	0x3c642c83	0.013926628
176	0x3ca4992b	0.020092567
177	0xbd111cc8	-0.03542784
178	0x3be56c58	0.007001441
179	0x3db1bb7b	0.08678337
180	0x3d95156d	0.07279477
181	0xbd352701	-0.04422665
182	0x3ccc25b2	0.024920318
183	0xbb983ae2	-0.0046456913
184	0xbd88f7c4	-0.066878825
185	0xbcb47908	-0.022030368
186	0xbba88ad1	-0.0051435013
187	0x3d3bae6b	0.045820635
188	0xbe1f5259	-0.15558757
189	0x3b5ff689	0.0034174046
190	0xbda0cc72	-0.07851495
191	0x3c24310c	0.010021459
192	0x3c60e0f4	0.013725508
193	0xbc98bfe9	-0.018646197
194	0xbde98bb1	-0.11403597
195	0x3c1eafb1	0.009685443
196	0xbd8c9726	-0.06864767
197	0xbc18e1a0	-0.009331137
198	0x3c8f4194	0.017487325
199	0xbdd33928	-0.10313636
200	0xbd7c7eb2	-0.061644264
201	0xbb2208b8	-0.0024724435
202	0xbd9e9dd1	-0.07744945
203	0xbd6e477c	-0.05817364
204	0x3cf97d05	0.030455122
205	0x3df15173	0.11783113
206	0xbd0ddf19	-0.03463659
207	0xbb73bdc9	-0.0037191978
208	0x3dae06d6	0.084973976
209	0xbdd48eb8	-0.10378784
210	0x3d131b5c	0.035914764
211	0xbce6fbd3	-0.028196251
212	0xbdd2abfa	-0.10286708
213	0xbd864f91	-0.06558145
214	0xbcda3099	-0.026634501
215	0xbb3e3d53	-0.0029028251
216	0xbcc40475	-0.023927907
217	0x3d7c4206	0.061586402
218	0x3ce2eb22	0.02770001
219	0x3cbccfb9	0.023048269
220	0x3c259315	0.010105868
221	0x3d2568d1	0.040383164
222	0xbd3a717a	-0.045518376
223	0xbd4c7ab6	-0.049921714
224	0x3d0135e8	0.03154555
225	0x3dc2d96f	0.095141284
226	0x3d1eb8d9	0.038750503
227	0x3c476872	0.012170898
228	0x3d435be3	0.047695052
229	0x3d9264dc	0.07148144
230	0xbc56dcde	-0.013114182
231	0x3d318635	0.04334088
232	0xbd4b66e4	-0.04965867
233	0xbc916478	-0.017748103
234	0xbca8136b	-0.020517072
235	0xbd014e54	-0.03156884
236	0xbd7271b8	-0.059190482
237	0x3d9b4e06	0.07583241
238	0xbdc12f1a	-0.09432812
239	0x3d6c9cb1	0.05776662
240	0xbe360adc	-0.1777758
241	0x3acc1255	0.0015569428
242	0x3d4f7e84	0.050657764
243	0x3bf2bcef	0.0074077765
244	0xbda32bae	-0.079673156
245	0xbd3822fc	-0.04495524
246	0xbd95e3a3	-0.07318809
247	0xbd469849	-0.048485074
248	0xbc73a455	-0.014870723
249	0xbd6d1b70	-0.057887495
250	0x3d7a51e6	0.06111326
251	0xbd64e5ab	-0.05588309
252	0xbd1cf669	-0.038320933
253	0xb8f60ac9	-0.00011732203
254	0xbdcfc058	-0.101441085
255	0xbcbbe4e1	-0.022936286
