Assets/DungeonEscape-2041.onnx (onnx, 285794 bytes, 6 tensors)

action_model._discrete_distribution.branches.0.bias f4 [4]
00000000: 0000 0000 0000 0000 0000 0000 0000 0000
0.0 0.0 0.0 0.0

action_model._discrete_distribution.branches.0.weight f4 [4, 256]
00000000: 70dc 0b3c e77d 5fbc 76d0 afba bbd7 0abc
00000010: cfb4 f63b b25e 68bb 2767 aebb be44 2ebc
00000020: af6d e93b 1dc1 f5bb 740c a23b 0a08 dd3a
00000030: 77a4 653b 972f acb9 7670 413c 4c8a 803b
00000040: bfaf 873a d212 1bbc 151e fcbb 2dbf 8a3b
00000050: 1f97 a83a 0a0b 883b 4b51 93bb 6aa1 7fba
00000060: 2649 363c 7206 d33b 3089 f1bb 8def 073c
00000070: 3305 f03a 9e8a c539 c3c4 32bc 3523 03bc
00000080: 3210 90bb f79a 17ba 51c6 13bb 7b30 803b
00000090: dfa9 63bb 586b d73a c5c1 e13b a022 6c3c
000000a0: b366 d33b 31a1 b0bb ddc5 153a 7292 e03b
000000b0: 5d86 313c 3a18 bf3b 300b 003c d2c0 343c
000000c0: 96d4 8fbc b2d4 1d3b 5419 ab38 d0dc f1bb
000000d0: a05a 16bc abfd b7bb 1499 15b9 18a6 eb3b
000000e0: ac27 c3ba e98f ac3a 031d 103c a5b5 6abb
000000f0: 774d ebbb ce6b c13b 6287 af3b c854 e4ba
00000100: a09d c4bb b9b6 0e3b 833a 813b 4b74 4d3c
00000110: cc87 2b3c cfb4 03bc abc4 1c3c 29e1 05ba
00000120: 6c0e a13b e81c 7abb 9176 42bc 32b8 66bb
00000130: a87d 67bb 9f9d 173b c78f b0bb 78b4 55bb
00000140: d94e bcba 1775 06bc f354 a03c 4f5f 4ebc
00000150: 4d10 15bb 16e4 99ba 491b 9bbb 8504 3cbc
00000160: 9844 8bbb ba75 c33b b33d c13b 9cfa 143b
00000170: 07ae 1b3b a028 063c 1546 d63b 8207 cf3b
00000180: e5cc da3b 176f bdba 2860 29bc 0f53 ea3a
00000190: 53d9 cbbb 4b77 c638 c8c1 e2bb 72e3 d6bb
000001a0: 0e32 3d3b 2859 a03b d337 833b 03fc 103c
000001b0: cbca 463b 4e97 c33a 0c64 963b 8182 413c
000001c0: 6348 e139 2f29 873a 0a96 a2bc c7b0 533b
000001d0: 2a46 8a3b cba4 133c 7342 803b 6f91 edbb
000001e0: f3ee 01bb a515 5339 4a03 4fbc 4063 8a3b
000001f0: ddf9 4ebb 52c2 99ba 6783 083c d744 ee3b
00000200: b018 bbba e7e0 29bb 72a2 d5ba bf6e b43b
00000210: 2317 27bc 8036 913b bfe9 25bc 8df5 ba3b
00000220: 029a 6cbb ce6d 11bc 3b3c 013c eacb cbbb
00000230: 8fc6 99bb 4f99 1c3b b6ff 9839 dcd5 bb3b
00000240: 5545 723b b968 ae3b 81be a53b 67b6 2e39
00000250: 300c e138 f10c a1bb 43d2 7bbc d0a2 e6bb
00000260: 661f 33bc 5cac cc3b eb4b bdbb e52e c13b
00000270: 46b7 a33b 7b1b 8aba 1b67 6cbb 5d90 b33b
00000280: 8a7e 75bb a3a7 31bc 1680 a23b 431b 88ba
00000290: 9561 88ba f65d 1e3c 8264 c7bb fa2f 5f3a
000002a0: d559 78bb e4e4 95ba 50fd 3dbb 17d4 3b3b
000002b0: d906 96b9 5085 8dba e3a0 4fbc db11 6c3c
000002c0: 40fe 053b 1df4 9e39 e770 1e3b 7027 c13a
000002d0: 172c f13b 6b7e 023c ab69 ee3b 7c26 99b8
000002e0: 7fac 2b3c 721c 05bc 27df ccbb 2515 ee3b
000002f0: c8af 153c 7d23 9dbb d611 21bb 0cfe 083c
00000300: bb09 3b3c 8f02 67bc dcc0 813a 6bf0 89bb
00000310: d3ae 553a 8de0 3bbb f38b 603b b7b3 593c
00000320: 4f0a c53b 57fe 30bc b599 c63b 4469 853b
00000330: 9e9c aeba 1bfd f8b9 97fa 53bc fac4 633a
00000340: 38ec 363c 4395 c2bb af7e 8a3b 0b1b 493b
00000350: 38c1 c73b e2b1 4d3b 98f1 d53b 4b59 403c
00000360: 7236 383c b32e 983b 2f67 d9ba 1028 643c
00000370: b50e e03a 0a09 75bb 1fc6 dbbb 3cb9 2e3c
00000380: c151 c4bb 7583 68bc b8b3 b63b ed71 533b
00000390: 8222 093c 3729 07bb ff59 1f3c 430a 5f3c
000003a0: 7f4b 96bb 6451 1d3c bae5 803a a736 7d39
000003b0: ba9b 52bb fd29 0f3c 94a2 87bb 93e9 aeba
000003c0: 2d13 a43b 8b4d f7ba aab1 66bb a381 3a3a
000003d0: 9cdf ab3b fb54 a5bb 8c91 ad3b 25aa fe3a
000003e0: d779 073c 17dc 14bc 4538 8c3b 5b11 f3bb
000003f0: 0fd3 573b fed4 2d39 e945 9d3b 4918 ca3b
0.008536443 -0.013640857 -0.0013413567 -0.008474286 0.0075288783 -0.0035456833 -0.0053223553 -0.010636507
0.007123671 -0.0074998275 0.004945332 0.0016863358 0.0035040656 -0.00032841854 0.011806598 0.0039227363
0.0010352059 -0.009464936 -0.0076940157 0.0042342157 0.001286242 0.0041517066 -0.004495775 -0.00097515306
0.011125838 0.0064399773 -0.0073710904 0.008296859 0.0018312096 0.00037678046 -0.010911169 -0.0080039995
-0.004396462 -0.00057832844 -0.0022548626 0.0039120293 -0.0034738702 0.0016435189 0.006889554 0.014412552
0.0064514517 -0.0053903093 0.0005713383 0.006853395 0.010835257 0.0058317455 0.007815167 0.0110323
-0.017557424 0.0024083075 8.158633e-05 -0.007381059 -0.00917688 -0.0056149564 -0.00014266773 0.007191431
-0.0014889142 0.0013165447 0.008795979 -0.0035813835 -0.0071808654 0.005902744 0.005356715 -0.0017420286
-0.0060002357 0.0021776392 0.0039437427 0.012539933 0.010469388 -0.008038714 0.009568374 -0.0005107099
0.0049150493 -0.0038164202 -0.011869089 -0.0035205004 -0.00353227 0.002313472 -0.0053882333 -0.0032608788
-0.001436676 -0.008206627 0.019571757 -0.0125959655 -0.0022745312 -0.0011740949 -0.0047334773 -0.011475687
-0.0042501204 0.005964962 0.0058972477 0.0022732383 0.0023754851 0.008188397 0.006539116 0.0063180337
0.0066772574 -0.0014452663 -0.010337867 0.0017877537 -0.0062209754 9.463596e-05 -0.006920073 -0.0065578753
0.0028868946 0.0048934408 0.0040044575 0.008849147 0.0030333276 0.0014922412 0.0045895632 0.0118109
0.00042969277 0.0010311956 -0.019846935 0.0032301412 0.00421979 0.009011458 0.0039141714 -0.007250003
-0.0019826263 0.00020130591 -0.0126350615 0.0042232573 -0.0031582036 -0.0011730886 0.00833211 0.00727139
-0.0014274325 -0.0025921406 -0.0016299023 0.005506366 -0.010198387 0.0044315457 -0.01012653 0.0057055415
-0.0036102538 -0.008876277 0.007887895 -0.006219377 -0.0046928595 0.002389509 0.0002918222 0.005732281
0.0036967595 0.0053225425 0.00505811 0.00016661883 0.00010731106 -0.004914873 -0.0153699545 -0.0070384517
-0.010932779 0.006246133 -0.0057768724 0.005895483 0.004996213 -0.0010536754 -0.0036072198 0.005479856
-0.0037459456 -0.01084319 0.0049591167 -0.0010384101 -0.0010405058 0.009665957 -0.0060849795 0.0008513924
-0.003789534 -0.0011436013 -0.0028990097 0.002866035 -0.0002861533 -0.0010797177 -0.012672636 0.014408554
0.0020445734 0.00030317987 0.0024176182 0.0014736485 0.0073599922 0.007964711 0.00727578 -7.302777e-05
0.010478138 -0.008124458 -0.006252188 0.007265704 0.009136148 -0.0047954903 -0.0024577281 0.008361351
0.011415894 -0.014099731 0.0009899396 -0.0042095683 0.0008151356 -0.0028667778 0.0034263104 0.013287476
0.006013192 -0.010802827 0.006060804 0.0040713865 -0.0013321822 -0.00047490824 -0.012938163 0.00086887146
0.011164717 -0.0059382035 0.0042265276 0.0030686285 0.0060960315 0.0031386544 0.0065290444 0.011740039
0.0112434495 0.004644239 -0.0016586537 0.013925567 0.0017094227 -0.003738942 -0.0067069675 0.0106642805
-0.005991191 -0.014191498 0.0055756234 0.003226395 0.008370044 -0.0020623931 0.009726047 0.013613286
-0.0045866366 0.009601925 0.0009834089 0.0002414832 -0.0032136277 0.008738038 -0.004139254 -0.0013344757
0.0050071687 -0.0018867714 -0.003520111 0.0007114654 0.005245162 -0.005045531 0.0052968916 0.0019429369
0.008268795 -0.009085677 0.004279169 -0.0074178404 0.0032932197 0.00016577911 0.0047995937 0.006167446

network_body._body_endoder.seq_layers.0.bias f4 [256]
00000000: 0000 0000 0000 0000 0000 0000 0000 0000
00000010: 0000 0000 0000 0000 0000 0000 0000 0000
00000020: 0000 0000 0000 0000 0000 0000 0000 0000
00000030: 0000 0000 0000 0000 0000 0000 0000 0000
00000040: 0000 0000 0000 0000 0000 0000 0000 0000
00000050: 0000 0000 0000 0000 0000 0000 0000 0000
00000060: 0000 0000 0000 0000 0000 0000 0000 0000
00000070: 0000 0000 0000 0000 0000 0000 0000 0000
00000080: 0000 0000 0000 0000 0000 0000 0000 0000
00000090: 0000 0000 0000 0000 0000 0000 0000 0000
000000a0: 0000 0000 0000 0000 0000 0000 0000 0000
000000b0: 0000 0000 0000 0000 0000 0000 0000 0000
000000c0: 0000 0000 0000 0000 0000 0000 0000 0000
000000d0: 0000 0000 0000 0000 0000 0000 0000 0000
000000e0: 0000 0000 0000 0000 0000 0000 0000 0000
000000f0: 0000 0000 0000 0000 0000 0000 0000 0000
00000100: 0000 0000 0000 0000 0000 0000 0000 0000
00000110: 0000 0000 0000 0000 0000 0000 0000 0000
00000120: 0000 0000 0000 0000 0000 0000 0000 0000
00000130: 0000 0000 0000 0000 0000 0000 0000 0000
00000140: 0000 0000 0000 0000 0000 0000 0000 0000
00000150: 0000 0000 0000 0000 0000 0000 0000 0000
00000160: 0000 0000 0000 0000 0000 0000 0000 0000
00000170: 0000 0000 0000 0000 0000 0000 0000 0000
00000180: 0000 0000 0000 0000 0000 0000 0000 0000
00000190: 0000 0000 0000 0000 0000 0000 0000 0000
000001a0: 0000 0000 0000 0000 0000 0000 0000 0000
000001b0: 0000 0000 0000 0000 0000 0000 0000 0000
000001c0: 0000 0000 0000 0000 0000 0000 0000 0000
000001d0: 0000 0000 0000 0000 0000 0000 0000 0000
000001e0: 0000 0000 0000 0000 0000 0000 0000 0000
000001f0: 0000 0000 0000 0000 0000 0000 0000 0000
00000200: 0000 0000 0000 0000 0000 0000 0000 0000
00000210: 0000 0000 0000 0000 0000 0000 0000 0000
00000220: 0000 0000 0000 0000 0000 0000 0000 0000
00000230: 0000 0000 0000 0000 0000 0000 0000 0000
00000240: 0000 0000 0000 0000 0000 0000 0000 0000
00000250: 0000 0000 0000 0000 0000 0000 0000 0000
00000260: 0000 0000 0000 0000 0000 0000 0000 0000
00000270: 0000 0000 0000 0000 0000 0000 0000 0000
00000280: 0000 0000 0000 0000 0000 0000 0000 0000
00000290: 0000 0000 0000 0000 0000 0000 0000 0000
000002a0: 0000 0000 0000 0000 0000 0000 0000 0000
000002b0: 0000 0000 0000 0000 0000 0000 0000 0000
000002c0: 0000 0000 0000 0000 0000 0000 0000 0000
000002d0: 0000 0000 0000 0000 0000 0000 0000 0000
000002e0: 0000 0000 0000 0000 0000 0000 0000 0000
000002f0: 0000 0000 0000 0000 0000 0000 0000 0000
00000300: 0000 0000 0000 0000 0000 0000 0000 0000
00000310: 0000 0000 0000 0000 0000 0000 0000 0000
00000320: 0000 0000 0000 0000 0000 0000 0000 0000
00000330: 0000 0000 0000 0000 0000 0000 0000 0000
00000340: 0000 0000 0000 0000 0000 0000 0000 0000
00000350: 0000 0000 0000 0000 0000 0000 0000 0000
00000360: 0000 0000 0000 0000 0000 0000 0000 0000
00000370: 0000 0000 0000 0000 0000 0000 0000 0000
00000380: 0000 0000 0000 0000 0000 0000 0000 0000
00000390: 0000 0000 0000 0000 0000 0000 0000 0000
000003a0: 0000 0000 0000 0000 0000 0000 0000 0000
000003b0: 0000 0000 0000 0000 0000 0000 0000 0000
000003c0: 0000 0000 0000 0000 0000 0000 0000 0000
000003d0: 0000 0000 0000 0000 0000 0000 0000 0000
000003e0: 0000 0000 0000 0000 0000 0000 0000 0000
000003f0: 0000 0000 0000 0000 0000 0000 0000 0000
0.0 0.0 0.0 0.0 0.0 0.0 0.0 0.0
0.0 0.0 0.0 0.0 0.0 0.0 0.0 0.0
0.0 0.0 0.0 0.0 0.0 0.0 0.0 0.0
0.0 0.0 0.0 0.0 0.0 0.0 0.0 0.0
0.0 0.0 0.0 0.0 0.0 0.0 0.0 0.0
0.0 0.0 0.0 0.0 0.0 0.0 0.0 0.0
0.0 0.0 0.0 0.0 0.0 0.0 0.0 0.0
0.0 0.0 0.0 0.0 0.0 0.0 0.0 0.0
0.0 0.0 0.0 0.0 0.0 0.0 0.0 0.0
0.0 0.0 0.0 0.0 0.0 0.0 0.0 0.0
0.0 0.0 0.0 0.0 0.0 0.0 0.0 0.0
0.0 0.0 0.0 0.0 0.0 0.0 0.0 0.0
0.0 0.0 0.0 0.0 0.0 0.0 0.0 0.0
0.0 0.0 0.0 0.0 0.0 0.0 0.0 0.0
0.0 0.0 0.0 0.0 0.0 0.0 0.0 0.0
0.0 0.0 0.0 0.0 0.0 0.0 0.0 0.0
0.0 0.0 0.0 0.0 0.0 0.0 0.0 0.0
0.0 0.0 0.0 0.0 0.0 0.0 0.0 0.0
0.0 0.0 0.0 0.0 0.0 0.0 0.0 0.0
0.0 0.0 0.0 0.0 0.0 0.0 0.0 0.0
0.0 0.0 0.0 0.0 0.0 0.0 0.0 0.0
0.0 0.0 0.0 0.0 0.0 0.0 0.0 0.0
0.0 0.0 0.0 0.0 0.0 0.0 0.0 0.0
0.0 0.0 0.0 0.0 0.0 0.0 0.0 0.0
0.0 0.0 0.0 0.0 0.0 0.0 0.0 0.0
0.0 0.0 0.0 0.0 0.0 0.0 0.0 0.0
0.0 0.0 0.0 0.0 0.0 0.0 0.0 0.0
0.0 0.0 0.0 0.0 0.0 0.0 0.0 0.0
0.0 0.0 0.0 0.0 0.0 0.0 0.0 0.0
0.0 0.0 0.0 0.0 0.0 0.0 0.0 0.0
0.0 0.0 0.0 0.0 0.0 0.0 0.0 0.0
0.0 0.0 0.0 0.0 0.0 0.0 0.0 0.0

network_body._body_endoder.seq_layers.0.weight f4 [256, 15]
00000000: 3a12 54be 572b a13c 50f9 b6be a62d 5dbd
00000010: 0378 9b3e c002 94be 710c dcbe 26ad 3d3e
00000020: fa07 d3bd 3d46 82be 190f 933d c972 903e
00000030: 95e4 92be 33ce 53bc 757d 78be e3fc 90be
00000040: 72b0 d93e b164 8f3d f1e3 c53e b76e c33e
00000050: 07e3 523f 3bfc d13e dc5e 2dbe a298 f63b
00000060: 9e00 6bbd d83f 6dbe fcee 873e eb4c 6bbe
00000070: 9b94 afbd a9ac c33e 2b51 943d 4632 35be
00000080: cdbd eebb ca3f 75be 733e aebe 6619 603e
00000090: 30b2 3bbf 64cd 05be 238d 093d 8135 82be
000000a0: 1752 3a3d bc34 ee3e 0fe5 2abf 7970 553d
000000b0: 1dbf afbe 1c41 2cbe c869 cd3c 41cc 53bf
000000c0: 5e81 24be 82ee 2abf 1e10 ca3e f8f9 09be
000000d0: 169d 003d 88c1 d43e e349 66bd b08c 733e
000000e0: 88e9 9d3e 4936 22be d42b 303d a4f0 9a3d
000000f0: ebdf d0bd a70e 8c3e 6717 053f 5822 4bbe
00000100: 25c2 953d 2851 ec3c c8a2 693d e971 eabe
00000110: 8005 d8bd 9a0f debc ff19 c53e 7c97 923e
00000120: 849d 7cbd 785d 623d 3504 993e 53a9 1a3e
00000130: 933c 593e 8921 2d3e 6b36 3abe c1fd 5d3e
00000140: ba98 a23d aed8 94bd ae92 c33c 5c06 503e
00000150: 655e 66be fff7 6abe 248c fa3d c84f 1c3e
00000160: 7ed0 cb3c 3491 0b3f 2a61 a2be cb47 16bc
00000170: 0634 eebc fd80 7f3e d39b 9bbd 4436 ed3e
00000180: 82c7 c4bd ca3b 58be 8faa da3d a8b9 a2be
00000190: 38bb 53bb 3901 653e 7122 4d3d 3701 79bd
000001a0: f9fd 09be fd7d 3f3e 1d22 4d3d 4415 26be
000001b0: e5e8 59be 4627 953e c854 dfbe cd14 0b3d
000001c0: 0800 063d 235d b0be 63ac b53d e30d 3abd
000001d0: f66b a43d 0dbd 93bd bdbc f8bc 4aaf 36be
000001e0: 6d22 063f bd0c 2b3e 130d 4ebe e93a 9fbe
000001f0: 9fab 1d3f d24b 853e 0aa7 00bf ad3b cc3e
00000200: 637b a9be 90e1 1bbe 0399 ae3e f500 673e
00000210: 8588 e9bd 81d5 a63d ebdc 603e 3b89 0c3e
00000220: 87ed 83be 56ae 5b3e 7bbc b53d 4c81 b2bd
00000230: c1c5 62be 1630 023f c5e8 363e 55f8 a0be
00000240: ca15 07be 5291 52be 0fb0 babe b22e 81be
00000250: 79f0 36be 39d6 ae3e 7b6f 3bbd dfe8 423d
00000260: 93b2 0abf 15e3 98bd 658d bebd febc 87be
00000270: b225 22be 6fca 6bbe fac9 4a3e e535 37bd
00000280: 9aa2 a03e 1f11 97be aa73 07bf c0bc 9c3e
00000290: 26c1 3e3d c356 83bc 7bbb ee3e b4ee 71bf
000002a0: ae65 adbe d1d2 163e 6b51 8c3e 3e96 e3bd
000002b0: 4df1 e9bb 4ded b3bc c7bb 953e 254b 07bc
000002c0: dbd3 0dbe 8e43 8e3d f09c 10be 2c80 86bd
000002d0: 1f46 31be 0fe7 963e 558c 8cbe 1776 343d
000002e0: e6ec a6bd 8bc1 07ba 2298 8ebe c4d5 593d
000002f0: 710e a83e 1e97 6a3e a607 633e 786c a7bc
00000300: 304b 873d 351a 7d3e afff b73e 7b00 04bd
00000310: ec20 ee3e 7d24 e33d 105a 8ebe affc debe
00000320: 1372 4ebd 402d ea3c ab53 e63b e4d4 e93d
00000330: 82f7 233f 0b6c 083c f08d babd 87dc 08be
00000340: 523a 97bd 9171 a5be 342d a5be 87fe 2dbe
00000350: ee30 67bc 1c55 523e dad6 ab3d 0184 b0bb
00000360: 025c 93bd 6452 213e 0990 55be 6617 96be
00000370: 7704 0dbb c804 973d d064 1dbe a07b 003e
00000380: fdb3 863d c93e 073d a6db e73e 33e1 ab3c
00000390: 9dfc b03e ff3d 27be bde6 d13e 0292 dabe
000003a0: 9bba 7f3d 0f8e 593e 6ee1 a3bd 2266 1f3e
000003b0: f26b 58be d59c c33e 5198 603e 454e 2c3d
000003c0: d2c4 f03d 160b 21be 9c4f 763e dee2 9a3e
000003d0: 9762 373f 82a4 b0be 2c77 eabb 3ee3 313d
000003e0: 1b38 ce3e a3e1 bb3e 621f 823e fac5 77be
000003f0: b788 c23c 0afb 1739 008f 1cbe a94f c73e
-0.20710078 0.019673986 -0.35737085 -0.053998612 0.30365 -0.28908348 -0.42978242 0.18523082
-0.10304256 -0.25444213 0.07180614 0.28212574 -0.2869002 -0.01292758 -0.24266608 -0.28317937
0.4251743 0.07001627 0.38650468 0.38170406 0.82377666 0.4101275 -0.16930717 0.0075255195
-0.057373635 -0.23168886 0.26549518 -0.2297856 -0.08573266 0.38217667 0.07242044 -0.17694959
-0.0072858096 -0.23950115 -0.3403202 0.21884689 -0.7331877 -0.13066632 0.033581864 -0.25431445
0.045488443 0.46524608 -0.66755766 0.052109215 -0.34325495 -0.16821712 0.025074854 -0.8273354
-0.16064975 -0.66770184 0.3946542 -0.13474262 0.03139981 0.41553903 -0.056222808 0.23784137
0.30842233 -0.1584102 0.043010548 0.0756543 -0.10198959 0.2735493 0.51988834 -0.1983732
0.07312421 0.028847292 0.057040006 -0.45790032 -0.10547924 -0.027107049 0.38496396 0.28631198
-0.061673656 0.05526492 0.29886022 0.15103655 0.21214513 0.16907324 -0.18184821 0.2167883
0.079392865 -0.07267891 0.023873653 0.20314926 -0.22496946 -0.22946166 0.12233761 0.15264809
0.02487969 0.5451844 -0.31714755 -0.00917239 -0.029077541 0.24951549 -0.075980805 0.46330464
-0.096083656 -0.21116558 0.10677063 -0.3178227 -0.0032307636 0.22363748 0.050081674 -0.060792174
-0.13475789 0.18700404 0.05008136 -0.1621905 -0.21280248 0.29131526 -0.4361937 0.033955384
0.032714874 -0.34446058 0.08870771 -0.0454234 0.080284044 -0.07213793 -0.030363435 -0.17840305
0.5239628 0.16704078 -0.20122175 -0.31099632 0.6159 0.2603441 -0.5025488 0.3988928
-0.3310195 -0.15222764 0.34101114 0.22558959 -0.11402992 0.081461914 0.21959274 0.13724224
-0.25767156 0.21453223 0.088738404 -0.08716068 -0.2214575 0.50854623 0.17862232 -0.31439462
-0.13191906 -0.20563248 -0.36462447 -0.25230938 -0.1786517 0.34147814 -0.045760613 0.047585364
-0.5417873 -0.074651875 -0.093043126 -0.26511377 -0.15834692 -0.23026441 0.1980361 -0.044729132
0.31374055 -0.2950525 -0.52910864 0.30612755 0.04657092 -0.016032582 0.4662741 -0.9450486
-0.33866638 0.14728858 0.27405867 -0.11112641 -0.007139361 -0.02196374 0.29244825 -0.008257662
-0.13850348 0.06946479 -0.14122367 -0.065674156 -0.17311905 0.2947316 -0.27450815 0.04405793
-0.081506535 -0.00051786815 -0.27850443 0.05318238 0.32823518 0.22909209 0.22170886 -0.020437464
0.06606138 0.24717028 0.3593726 -0.03222702 0.46509492 0.11090944 -0.27803087 -0.43552157
-0.05040176 0.02858603 0.007029017 0.11417559 0.6404954 0.008326541 -0.09109104 -0.13365375
-0.073841706 -0.32313207 -0.3226105 -0.16991626 -0.014110787 0.20540279 0.08390589 -0.00538683
-0.071952835 0.15754086 -0.20855726 -0.29314727 -0.0021517554 0.07373959 -0.15370488 0.12547159
0.06577299 0.03301886 0.45284766 0.020981407 0.3456773 -0.16332243 0.40996352 -0.4268952
0.06243382 0.21245597 -0.08001982 0.15566304 -0.21134928 0.3820559 0.21933104 0.04206683
0.117562905 -0.15726885 0.24053806 0.3025121 0.7163481 -0.3450051 -0.0071553197 0.043429606
0.4027718 0.36695585 0.25414568 -0.24196616 0.023746831 0.00014494002 -0.15288925 0.38927963

network_body._body_endoder.seq_layers.2.bias f4 [256]
00000000: 0000 0000 0000 0000 0000 0000 0000 0000
00000010: 0000 0000 0000 0000 0000 0000 0000 0000
00000020: 0000 0000 0000 0000 0000 0000 0000 0000
00000030: 0000 0000 0000 0000 0000 0000 0000 0000
00000040: 0000 0000 0000 0000 0000 0000 0000 0000
00000050: 0000 0000 0000 0000 0000 0000 0000 0000
00000060: 0000 0000 0000 0000 0000 0000 0000 0000
00000070: 0000 0000 0000 0000 0000 0000 0000 0000
00000080: 0000 0000 0000 0000 0000 0000 0000 0000
00000090: 0000 0000 0000 0000 0000 0000 0000 0000
000000a0: 0000 0000 0000 0000 0000 0000 0000 0000
000000b0: 0000 0000 0000 0000 0000 0000 0000 0000
000000c0: 0000 0000 0000 0000 0000 0000 0000 0000
000000d0: 0000 0000 0000 0000 0000 0000 0000 0000
000000e0: 0000 0000 0000 0000 0000 0000 0000 0000
000000f0: 0000 0000 0000 0000 0000 0000 0000 0000
00000100: 0000 0000 0000 0000 0000 0000 0000 0000
00000110: 0000 0000 0000 0000 0000 0000 0000 0000
00000120: 0000 0000 0000 0000 0000 0000 0000 0000
00000130: 0000 0000 0000 0000 0000 0000 0000 0000
00000140: 0000 0000 0000 0000 0000 0000 0000 0000
00000150: 0000 0000 0000 0000 0000 0000 0000 0000
00000160: 0000 0000 0000 0000 0000 0000 0000 0000
00000170: 0000 0000 0000 0000 0000 0000 0000 0000
00000180: 0000 0000 0000 0000 0000 0000 0000 0000
00000190: 0000 0000 0000 0000 0000 0000 0000 0000
000001a0: 0000 0000 0000 0000 0000 0000 0000 0000
000001b0: 0000 0000 0000 0000 0000 0000 0000 0000
000001c0: 0000 0000 0000 0000 0000 0000 0000 0000
000001d0: 0000 0000 0000 0000 0000 0000 0000 0000
000001e0: 0000 0000 0000 0000 0000 0000 0000 0000
000001f0: 0000 0000 0000 0000 0000 0000 0000 0000
00000200: 0000 0000 0000 0000 0000 0000 0000 0000
00000210: 0000 0000 0000 0000 0000 0000 0000 0000
00000220: 0000 0000 0000 0000 0000 0000 0000 0000
00000230: 0000 0000 0000 0000 0000 0000 0000 0000
00000240: 0000 0000 0000 0000 0000 0000 0000 0000
00000250: 0000 0000 0000 0000 0000 0000 0000 0000
00000260: 0000 0000 0000 0000 0000 0000 0000 0000
00000270: 0000 0000 0000 0000 0000 0000 0000 0000
00000280: 0000 0000 0000 0000 0000 0000 0000 0000
00000290: 0000 0000 0000 0000 0000 0000 0000 0000
000002a0: 0000 0000 0000 0000 0000 0000 0000 0000
000002b0: 0000 0000 0000 0000 0000 0000 0000 0000
000002c0: 0000 0000 0000 0000 0000 0000 0000 0000
000002d0: 0000 0000 0000 0000 0000 0000 0000 0000
000002e0: 0000 0000 0000 0000 0000 0000 0000 0000
000002f0: 0000 0000 0000 0000 0000 0000 0000 0000
00000300: 0000 0000 0000 0000 0000 0000 0000 0000
00000310: 0000 0000 0000 0000 0000 0000 0000 0000
00000320: 0000 0000 0000 0000 0000 0000 0000 0000
00000330: 0000 0000 0000 0000 0000 0000 0000 0000
00000340: 0000 0000 0000 0000 0000 0000 0000 0000
00000350: 0000 0000 0000 0000 0000 0000 0000 0000
00000360: 0000 0000 0000 0000 0000 0000 0000 0000
00000370: 0000 0000 0000 0000 0000 0000 0000 0000
00000380: 0000 0000 0000 0000 0000 0000 0000 0000
00000390: 0000 0000 0000 0000 0000 0000 0000 0000
000003a0: 0000 0000 0000 0000 0000 0000 0000 0000
000003b0: 0000 0000 0000 0000 0000 0000 0000 0000
000003c0: 0000 0000 0000 0000 0000 0000 0000 0000
000003d0: 0000 0000 0000 0000 0000 0000 0000 0000
000003e0: 0000 0000 0000 0000 0000 0000 0000 0000
000003f0: 0000 0000 0000 0000 0000 0000 0000 0000
0.0 0.0 0.0 0.0 0.0 0.0 0.0 0.0
0.0 0.0 0.0 0.0 0.0 0.0 0.0 0.0
0.0 0.0 0.0 0.0 0.0 0.0 0.0 0.0
0.0 0.0 0.0 0.0 0.0 0.0 0.0 0.0
0.0 0.0 0.0 0.0 0.0 0.0 0.0 0.0
0.0 0.0 0.0 0.0 0.0 0.0 0.0 0.0
0.0 0.0 0.0 0.0 0.0 0.0 0.0 0.0
0.0 0.0 0.0 0.0 0.0 0.0 0.0 0.0
0.0 0.0 0.0 0.0 0.0 0.0 0.0 0.0
0.0 0.0 0.0 0.0 0.0 0.0 0.0 0.0
0.0 0.0 0.0 0.0 0.0 0.0 0.0 0.0
0.0 0.0 0.0 0.0 0.0 0.0 0.0 0.0
0.0 0.0 0.0 0.0 0.0 0.0 0.0 0.0
0.0 0.0 0.0 0.0 0.0 0.0 0.0 0.0
0.0 0.0 0.0 0.0 0.0 0.0 0.0 0.0
0.0 0.0 0.0 0.0 0.0 0.0 0.0 0.0
0.0 0.0 0.0 0.0 0.0 0.0 0.0 0.0
0.0 0.0 0.0 0.0 0.0 0.0 0.0 0.0
0.0 0.0 0.0 0.0 0.0 0.0 0.0 0.0
0.0 0.0 0.0 0.0 0.0 0.0 0.0 0.0
0.0 0.0 0.0 0.0 0.0 0.0 0.0 0.0
0.0 0.0 0.0 0.0 0.0 0.0 0.0 0.0
0.0 0.0 0.0 0.0 0.0 0.0 0.0 0.0
0.0 0.0 0.0 0.0 0.0 0.0 0.0 0.0
0.0 0.0 0.0 0.0 0.0 0.0 0.0 0.0
0.0 0.0 0.0 0.0 0.0 0.0 0.0 0.0
0.0 0.0 0.0 0.0 0.0 0.0 0.0 0.0
0.0 0.0 0.0 0.0 0.0 0.0 0.0 0.0
0.0 0.0 0.0 0.0 0.0 0.0 0.0 0.0
0.0 0.0 0.0 0.0 0.0 0.0 0.0 0.0
0.0 0.0 0.0 0.0 0.0 0.0 0.0 0.0
0.0 0.0 0.0 0.0 0.0 0.0 0.0 0.0

network_body._body_endoder.seq_layers.2.weight f4 [256, 256]
00000000: f3ca aebd c73d 463c ae06 8f3d c01a 02be
00000010: 8f97 913d 570b eabd 1102 e5bc 91cb 96bd
00000020: 4eba aeba 8933 91bc 4d7b 58bd bb94 01be
00000030: bb59 b23d 90fb 9bbc 21bf 273d fce4 4ebb
00000040: 47e5 d03d d996 85bd 8f7a ab3d c90e 2d3e
00000050: 8728 db3c 8e73 d5bc ac44 93bc 0b67 4dbc
00000060: f816 e8bc d0c1 90bd 136f 293d faf2 b4bc
00000070: 0000 18bd 518c c7bd 204a 27bc 82d9 d8bd
00000080: 158f 4ebb 17fd 8d3d e998 9abd fc5c be3c
00000090: 8df3 813d 9e78 fc3c dfa6 17bd c819 063e
000000a0: 06f4 873d bccd d7bd 21da 02bd 87e0 0c3d
000000b0: cc64 f0bd 6983 84bd 1d79 41b9 e0cd 783b
000000c0: c2e4 86bc 0556 30bd 340e 5bbd 1849 a13d
000000d0: 2639 0c3d 172b 78bb 8d40 0d3d 216e a93b
000000e0: 778d f1bc cafd 433b 0962 2f3d ad09 df3c
000000f0: 1148 64bc 5e91 893d f4e9 3fbc d1b0 903d
00000100: 1c02 53bd 898a 773d 1817 d13d e2c9 30be
00000110: f722 793d f41b a2bd 78aa 7e3c 8b46 70bd
00000120: a057 76bd 19a3 1c3d af4d 8c3c b6e7 59bc
00000130: f2ac 85bd 0342 ed3d 22cf d4ba acb1 b4bc
00000140: 5e1f cabd b7d7 5cbb 81f5 82bd 7f50 33bc
00000150: b192 343c ca7e a63c fad3 a2bd 9bfc 503d
00000160: 72c8 503c bafa a13d d213 c3bb d6cf aebd
00000170: 2618 f13d 570b aa3a 3b50 b6bd 75de 843d
00000180: 22c6 a73c 79bd a4bc 7cd7 243d 9efd f7bd
00000190: 4dac 2f3c 1de9 64bd bfc4 483d 920d c53d
000001a0: c2a1 41bd f518 b73d 0af4 37bd 9db8 76bd
000001b0: 85d6 2dbd 0204 573d 28dc 00bd 495a edbd
000001c0: 6349 2fbc 7c16 003e 4545 0e3d ffa8 11bc
000001d0: 8d21 44bd 9e87 f8bc 38e5 cabd 7510 02bd
000001e0: 03e8 fabc 79e8 353d d734 a43c f897 0b3c
000001f0: 8eec 2abd 2c4f bb3d 8408 d5bd 28cc f03c
00000200: c674 7f3d 3e1a 983d 75cb 1d3e e685 c03d
00000210: f702 173d 6982 ce3c 66eb 1c3d 45df 853c
00000220: 3ead 1bbe 5330 bfbd a0d1 673d f5d1 a0bd
00000230: 7b94 333d 0b0a 14bc de9f 21bd ae2c 89bc
00000240: 7740 55bd 651d 17bd 7051 533b 2579 a3bd
00000250: 378b f33b ee0f 1e3d ef6d afbd c9c7 4a3d
00000260: c0a2 483c dc5f 99bd 9193 c3bc e721 823d
00000270: 9289 d0bd 2116 1ebc cee4 49bd f93b 01be
00000280: 3d7d 643d aefb a3bd 9787 1cbd 50f6 efbb
00000290: 01f7 d7bd 0100 f0bc 3fa0 56bc 207f fb3a
000002a0: a0a8 553d 802c 9ebd 1794 80bd d103 fcbc
000002b0: 0d5d e13d b3b0 febd 9174 d63b 02d9 0cbc
000002c0: f018 acbc dac6 d03b a769 45bc e65e fdbc
000002d0: 5365 5ebd b15d a3bd 7ad7 32bd a98f cf3d
000002e0: fb3f 88bd 615e 473d 6607 da3d b295 1a3c
000002f0: 8e70 2a3d d56a 0ebe c1a0 2abc c272 6f3d
00000300: 8ab5 533e 71f4 eabc 4367 1a3c d6a1 223d
00000310: 873e f13c a816 9d3d aa54 84bd 509f 83bd
00000320: 8f7e 8ebd 748e 2abd ea9f 173c 9b5e b9bc
00000330: ebc0 aa3d 9236 8cbc 1a31 47bc 8e20 ccba
00000340: bb20 023b 8226 32bd 51d8 6bbb 5918 353d
00000350: 0273 b6bc 722b 303e 88dc cc3c e7d2 b8bd
00000360: 55c1 ccbc 348f 4cbd 9773 2cbc e715 983c
00000370: 5c2a a2bd 6824 d5bd 2564 79bd 543e c2bd
00000380: b73f fbbc b8f3 76bd 1253 c03c e237 e3bd
00000390: ea9a abbd 1aaf aebd 34dc 263d a027 29bd
000003a0: 5286 62bd 2f7b 003d ddf8 92bb 8bd7 0f3b
000003b0: 0919 bbbc 4e35 b2bd 3576 e6bd 9429 583c
000003c0: c18d ce3d b498 74bd b58f f73b f924 e43d
000003d0: e574 02bd 8846 fe3c 8103 3bbd 5c74 9e3c
000003e0: 5d36 47bb 29d7 0f3e fce2 983c 1d8b 4b3d
000003f0: f673 afbc 365f 293d 8c73 d23d 32a6 923d
-0.08534803 0.01209969 0.06983696 -0.12705517 0.07108986 -0.11427944 -0.027955087 -0.07363046
-0.001333067 -0.01772477 -0.052851964 -0.12654392 0.08708521 -0.019040853 0.04095376 -0.003156959
0.10199981 -0.065229125 0.083729856 0.16900171 0.026752723 -0.026056077 -0.017977081 -0.012536774
-0.028331265 -0.07068217 0.041365694 -0.022088517 -0.037109375 -0.0974356 -0.010210544 -0.10588361
-0.003151839 0.06933039 -0.075486965 0.023237698 0.06345282 0.030819234 -0.037024375 0.13095772
0.06638341 -0.105372876 -0.031946305 0.034393813 -0.117379755 -0.06470377 -0.00018451033 0.0037964508
-0.016466502 -0.043050785 -0.053480342 0.0787527 0.03423419 -0.003786748 0.03448539 0.005170599
-0.029486401 0.0029905909 0.042818103 0.027226293 -0.013933198 0.0671718 -0.011713494 0.07064975
-0.051515684 0.06043485 0.10209483 -0.17264512 0.06082436 -0.07915488 0.015543573 -0.058661025
-0.06014216 0.03824148 0.017126886 -0.013299873 -0.06527127 0.11584856 -0.0016236047 -0.022057377
-0.09869264 -0.0033697912 -0.063944824 -0.010944485 0.011021302 0.02032413 -0.079505876 0.051022153
0.012743102 0.079091504 -0.0059532905 -0.08535735 0.11772184 0.001297335 -0.089020215 0.06487743
0.02048022 -0.020109879 0.040244564 -0.121089205 0.010722232 -0.055886377 0.049015757 0.09621729
-0.047273405 0.08940307 -0.04491047 -0.060234655 -0.04244091 0.052494057 -0.031459957 -0.11589486
-0.010698649 0.12508577 0.03473403 -0.008890389 -0.04788356 -0.030338105 -0.09907001 -0.031753976
-0.03062821 0.044411156 0.020044727 0.008520119 -0.041729502 0.0914596 -0.10402015 0.029394224
0.062367223 0.0742688 0.15409644 0.09400539 0.036868062 0.025208669 0.03831043 0.016341815
-0.15202805 -0.09335389 0.0565964 -0.07852546 0.043842774 -0.009035598 -0.0394591 -0.016744938
-0.05206343 -0.036893267 0.0032244585 -0.07982091 0.007432367 0.03858941 -0.0856589 0.049506936
0.012245834 -0.07488987 -0.023874076 0.063541226 -0.101824895 -0.009648831 -0.04929047 -0.12620534
0.0557835 -0.080069885 -0.038215246 -0.007323064 -0.10545159 -0.029296877 -0.013099729 0.0019187666
0.052162766 -0.077233315 -0.06278246 -0.030763539 0.11004076 -0.124360465 0.0065446575 -0.008596661
-0.021007985 0.006371361 -0.012049115 -0.03092904 -0.05429585 -0.079768546 -0.043662526 0.10134823
-0.06652828 0.04867399 0.106459424 0.009435104 0.041611247 -0.1390794 -0.010414303 0.05845905
0.2067472 -0.028681012 0.009424034 0.03970512 0.02944876 0.07670337 -0.06461461 -0.06426871
-0.06957733 -0.04163976 0.009254435 -0.02262812 0.083375774 -0.017115865 -0.012157703 -0.0015573667
0.0019855935 -0.043493755 -0.003598709 0.044212673 -0.022271637 0.17204073 0.025007501 -0.090246014
-0.024994532 -0.049941257 -0.010525606 0.018565131 -0.07918236 -0.104073346 -0.06088652 -0.094845444
-0.03067003 -0.060291022 0.023477111 -0.11094643 -0.08379157 -0.08529492 0.040737346 -0.041297555
-0.05530388 0.031367477 -0.004485233 0.0021948542 -0.022839086 -0.08701573 -0.11253015 0.013193507
0.10085631 -0.05971594 0.007554973 0.111398645 -0.03184976 0.031039491 -0.04565764 0.019342594
-0.0030397393 0.14046921 0.018662922 0.049693216 -0.0214176 0.041350566 0.10275945 0.071606055
