Assets/DungeonEscape-2001.onnx (onnx, 289929 bytes, 6 tensors)

action_model._discrete_distribution.branches.0.bias f4 [4]
0.0 0.0 0.0 0.0
00000000: 0000 0000 0000 0000 0000 0000 0000 0000

action_model._discrete_distribution.branches.0.weight f4 [4, 256]
-0.00623907 -0.00482504 0.0026739303 -0.006433913 0.0029037918 -0.00025164642 -0.00852166 0.0031345505
0.0076125464 -0.006606149 -0.0016352965 0.005920454 -0.0013952933 0.0011078537 -0.002338638 0.008561231
-0.0057242787 -0.00092328846 0.005883207 0.0036662703 0.006687518 0.0030159862 -0.0038783848 0.008064942
-0.003643823 -0.008272874 -0.008062589 -0.0033189103 0.0021051907 0.000628289 -0.0019232234 -0.008504319
0.00705276 0.00660178 -0.0025903804 0.00085495133 -0.012001607 0.0011885448 -0.004246181 -0.0040780483
-0.0138659375 -0.010229363 -0.008694506 0.005630079 -0.004646221 -0.0026544277 -0.010239469 0.0066003837
-0.00090738555 0.0033486523 -0.0033641793 -0.010499896 -0.006084069 -0.009209436 -0.002663538 -0.0010614941
0.00053007447 -0.0012902996 -0.0038482451 0.006737504 0.003860496 0.0048049465 -0.0034549036 0.0069050486
-0.00022431652 0.003978383 -1.5154909e-05 -0.0022392876 0.0032261373 0.0004953723 0.0037429829 -0.0031463043
-0.0060839895 -0.0047907857 -0.0010254226 -0.0054932493 -0.005639387 -0.0036456794 0.004938542 -0.003069417
-0.004057161 0.0066859773 0.0050626076 -0.005296178 -0.00013580323 0.0045914655 0.001877841 -0.001703048
0.0055492404 -0.00011045689 0.0054743155 0.0012960711 0.0015044651 0.0022050694 -0.0017198566 -0.011067143
-0.0026783387 0.00043843742 0.00095639 0.011372594 -0.00027351358 0.0065718056 0.0049906923 -0.006934003
0.0003433199 0.00450545 -0.006226269 -0.0016279434 -0.007956273 -0.013577478 -0.0017586846 -0.0015652854
-0.0071707712 0.0065040714 -0.002841951 -0.00094114925 0.0007698569 0.004993062 0.0032339885 0.0132266525
-0.009339353 -0.0006785655 0.0036112901 0.0034905716 -0.008517958 -0.011652113 0.001470267 0.0012965148
0.0070553035 0.0005826099 -0.00054440746 -0.00087349827 -0.0042905584 0.007193142 0.005684314 -0.007550956
0.008145287 0.004728632 -0.0057038534 -0.00809608 0.012036879 0.00081591244 0.0044657113 0.0010509182
-0.0073911073 -0.0032082782 0.0007463491 -0.0062439297 -0.010967668 0.009396118 -0.0031014984 0.0020573111
0.005098145 0.0071479636 -0.004826978 -0.0036322945 -0.0076123364 -0.0012480996 0.0070448923 0.008995821
-0.0073548355 -0.0011102544 -0.008904761 -0.00404624 0.0006851895 -0.011743231 -0.0080322875 0.00046208032
0.0072318534 0.00051004847 -0.0009367688 -0.010854678 0.012933719 -0.0030244903 -0.0028716268 -0.0063785636
-0.00046051625 0.012274658 0.006034365 -0.008156353 -0.009332857 -0.007941792 0.010040115 0.0073656477
0.0017018134 -0.0053430335 0.001967171 -0.0035045089 -0.004184907 0.002019439 0.0018209026 -0.0005244698
-0.008375979 0.0041747377 -0.0013606517 -0.0027986905 0.0020593435 0.003428194 -0.007345619 -0.000837258
0.003927584 -0.012493221 -0.0043436363 -0.0027939966 0.0066899704 0.00056122494 -0.00028873186 -0.0012256883
-0.0023159606 0.0038871751 0.0012238335 0.004687809 0.00061836425 0.0041919756 -0.0053382907 -0.0042349044
-0.0045734397 0.0066298866 -0.0041377847 0.0031806403 -0.0018793213 -0.00081151485 0.003027221 0.009353191
-0.0008357499 0.00070729654 0.00319889 0.00795699 -0.0067330794 0.011622964 -0.007888157 -0.0030329379
-0.004940351 0.0012951117 0.0019924042 0.0021548679 0.008780994 0.009757308 -0.0013181752 0.0049049463
0.0031357438 -0.013729244 0.0037737165 0.0033670494 -0.009419291 -0.0021229968 0.0043208227 0.0021009268
0.007866157 0.006965237 -0.0020931712 -0.0041697416 0.015089287 0.009467014 0.0065982873 0.004992481
00000000: 1d71 ccbb 5f1b 9ebb 1b3d 2f3b 93d3 d2bb
00000010: 8b4d 3e3b 69ef 83b9 6f9e 0bbc 086d 4d3b
00000020: ab72 f93b 6578 d8bb 7257 d6ba 5e00 c23b
00000030: 46e2 b6ba 6735 913a d643 19bb 6844 0c3c
00000040: bb92 bbbb d708 72ba ebc7 c03b cf45 703b
00000050: f822 db3b daa7 453b 802c 7ebb d222 043c
00000060: 35cd 6ebb f38a 07bc f318 04bc 1382 59bb
00000070: 3df7 093b c3b3 243a ab14 fcba b355 0bbc
00000080: d71a e73b bf53 d83b 5fc3 29bb d01e 603a
00000090: 63a2 44bc f2c8 9b3a 8c23 8bbb 26a1 85bb
000000a0: f52d 63bc 0f99 27bc 6773 0ebc 877c b83b
000000b0: 543f 98bb e8f5 2dbb 72c3 27bc 0848 d83b
000000c0: 9ddd 6dba 1075 5b3b 9079 5cbb c107 2cbc
000000d0: df5c c7bb 2de3 16bc c18e 2ebb d521 8bba
000000e0: b2f4 0a3a 451f a9ba d732 7cbb 48c6 dc3b
000000f0: 6000 7d3b d072 9d3b aa6b 62bb bf43 e23b
00000100: 8236 6bb9 185d 823b d741 7eb7 03c1 12bb
00000110: 9a6d 533b dfdb 013a d54c 753b 3a32 4ebb
00000120: 345c c7bb 06fc 9cbb 7967 86ba b700 b4bb
00000130: 9bca b8bb 5aec 6ebb 7ed3 a13b 4628 49bb
00000140: eff1 84bb 0b16 db3b 3be4 a53b 908b adbb
00000150: 6766 0eb9 0174 963b e321 f63a cf38 dfba
00000160: 67d6 b53b 17a5 e7b8 e361 b33b eee0 a93a
00000170: 7931 c53a ed82 103b d06c e1ba f652 35bc
00000180: 1187 2fbb 13de e539 3fb6 7a3a 1e54 3a3c
00000190: 5f66 8fb9 4d58 d73b f688 a33b a236 e3bb
000001a0: 9eff b339 74a2 933b bb05 ccbb b760 d5ba
000001b0: 075b 02bc 1274 5ebc aa83 e6ba 432a cdba
000001c0: caf8 eabb 1b20 d53b 0740 3abb 75b7 76ba
000001d0: 39d0 493a d79c a33b 53f1 533b 9ab4 583c
000001e0: 1604 19bc c3e1 31ba 65ab 6c3b 13c2 643b
000001f0: e88e 0bbc 81e8 3ebc f9b5 c03a d1ef a93a
00000200: 2d30 e73b 4aba 183a 91b6 0eba 7afb 64ba
00000210: d097 8cbb 73b4 eb3b 7b43 ba3b 036e f7bb
00000220: cf73 053c a4f2 9a3b 64e7 babb 6ca5 04bc
00000230: 5436 453c f5e2 553a 1a55 923b f7be 893a
00000240: 1a31 f2bb fa41 52bb a4a6 433a e199 ccbb
00000250: bcb1 33bc 2df2 193c 8242 4bbb f4d3 063b
00000260: 570e a73b 7739 ea3b a02b 9ebb ca0b 6ebb
00000270: e870 f9bb 4697 a3ba d7d8 e63b 3563 133c
00000280: d500 f1bb f585 91ba 46e5 11bc 5296 84bb
00000290: 4a9e 333a ae66 40bc db99 03bc 5f43 f239
000002a0: 2ff9 ec3b c6b4 053a 7d91 75ba d2d7 31bc
000002b0: f3e7 533c 8736 46bb e731 3cbb 4503 d1bb
000002c0: 7271 f1b9 a61b 493c ecbb c53b 39a2 05bc
000002d0: d7e8 18bc 4a1e 02bc 4b7f 243c 885b f13b
000002e0: 620f df3a 9d14 afbb a7eb 003b e7ab 65bb
000002f0: 8b21 89bb 9058 043b 5aab ee3a 937c 09ba
00000300: 673b 09bc 3dcc 883b e557 b2ba 3c6a 37bb
00000310: 0df6 063b 8dab 603b 85b3 f0bb 6f7b 5bba
00000320: f6b2 803b 5eb0 4cbc 1055 8ebb 7c1b 37bb
00000330: 8a37 db3b 2b1f 133a ef60 97b9 46a7 a0ba
00000340: 5fc7 17bb fabf 7e3b 0a69 a03a 319c 993b
00000350: b919 223a d75c 893b d4ec aebb f4c4 8abb
00000360: cbdc 95bb 853f d93b 4196 87bb 4a72 503b
00000370: 8f53 f6ba d7bb 54ba 5764 463b 203e 193c
00000380: 3a16 5bba de69 393a 78a4 513b 095e 023c
00000390: 2aa1 dcbb 3f6e 3e3c 543d 01bc 41c4 46bb
000003a0: abe2 a1bb bdc0 a93a ff92 023b af38 0d3b
000003b0: 29de 0f3c 1edd 1f3c 9fc6 acba acb9 a03b
000003c0: 0d81 4d3b 9ff0 60bc 7550 773b b7a9 5c3b
000003d0: 5f53 1abc fa21 0bbb b095 8d3b b4af 093b
000003e0: 0ee1 003c a53c e43b 962d 09bb 54a2 88bb
000003f0: 0f39 773c 891b 1b3c 7236 d83b f797 a33b

network_body._body_endoder.seq_layers.0.bias f4 [256]
0.0 0.0 0.0 0.0 0.0 0.0 0.0 0.0
0.0 0.0 0.0 0.0 0.0 0.0 0.0 0.0
0.0 0.0 0.0 0.0 0.0 0.0 0.0 0.0
0.0 0.0 0.0 0.0 0.0 0.0 0.0 0.0
0.0 0.0 0.0 0.0 0.0 0.0 0.0 0.0
0.0 0.0 0.0 0.0 0.0 0.0 0.0 0.0
0.0 0.0 0.0 0.0 0.0 0.0 0.0 0.0
0.0 0.0 0.0 0.0 0.0 0.0 0.0 0.0
0.0 0.0 0.0 0.0 0.0 0.0 0.0 0.0
0.0 0.0 0.0 0.0 0.0 0.0 0.0 0.0
0.0 0.0 0.0 0.0 0.0 0.0 0.0 0.0
0.0 0.0 0.0 0.0 0.0 0.0 0.0 0.0
0.0 0.0 0.0 0.0 0.0 0.0 0.0 0.0
0.0 0.0 0.0 0.0 0.0 0.0 0.0 0.0
0.0 0.0 0.0 0.0 0.0 0.0 0.0 0.0
0.0 0.0 0.0 0.0 0.0 0.0 0.0 0.0
0.0 0.0 0.0 0.0 0.0 0.0 0.0 0.0
0.0 0.0 0.0 0.0 0.0 0.0 0.0 0.0
0.0 0.0 0.0 0.0 0.0 0.0 0.0 0.0
0.0 0.0 0.0 0.0 0.0 0.0 0.0 0.0
0.0 0.0 0.0 0.0 0.0 0.0 0.0 0.0
0.0 0.0 0.0 0.0 0.0 0.0 0.0 0.0
0.0 0.0 0.0 0.0 0.0 0.0 0.0 0.0
0.0 0.0 0.0 0.0 0.0 0.0 0.0 0.0
0.0 0.0 0.0 0.0 0.0 0.0 0.0 0.0
0.0 0.0 0.0 0.0 0.0 0.0 0.0 0.0
0.0 0.0 0.0 0.0 0.0 0.0 0.0 0.0
0.0 0.0 0.0 0.0 0.0 0.0 0.0 0.0
0.0 0.0 0.0 0.0 0.0 0.0 0.0 0.0
0.0 0.0 0.0 0.0 0.0 0.0 0.0 0.0
0.0 0.0 0.0 0.0 0.0 0.0 0.0 0.0
0.0 0.0 0.0 0.0 0.0 0.0 0.0 0.0
00000000: 0000 0000 0000 0000 0000 0000 0000 0000
00000010: 0000 0000 0000 0000 0000 0000 0000 0000
00000020: 0000 0000 0000 0000 0000 0000 0000 0000
00000030: 0000 0000 0000 0000 0000 0000 0000 0000
00000040: 0000 0000 0000 0000 0000 0000 0000 0000
00000050: 0000 0000 0000 0000 0000 0000 0000 0000
00000060: 0000 0000 0000 0000 0000 0000 0000 0000
00000070: 0000 0000 0000 0000 0000 0000 0000 0000
00000080: 0000 0000 0000 0000 0000 0000 0000 0000
00000090: 0000 0000 0000 0000 0000 0000 0000 0000
000000a0: 0000 0000 0000 0000 0000 0000 0000 0000
000000b0: 0000 0000 0000 0000 0000 0000 0000 0000
000000c0: 0000 0000 0000 0000 0000 0000 0000 0000
000000d0: 0000 0000 0000 0000 0000 0000 0000 0000
000000e0: 0000 0000 0000 0000 0000 0000 0000 0000
000000f0: 0000 0000 0000 0000 0000 0000 0000 0000
00000100: 0000 0000 0000 0000 0000 0000 0000 0000
00000110: 0000 0000 0000 0000 0000 0000 0000 0000
00000120: 0000 0000 0000 0000 0000 0000 0000 0000
00000130: 0000 0000 0000 0000 0000 0000 0000 0000
00000140: 0000 0000 0000 0000 0000 0000 0000 0000
00000150: 0000 0000 0000 0000 0000 0000 0000 0000
00000160: 0000 0000 0000 0000 0000 0000 0000 0000
00000170: 0000 0000 0000 0000 0000 0000 0000 0000
00000180: 0000 0000 0000 0000 0000 0000 0000 0000
00000190: 0000 0000 0000 0000 0000 0000 0000 0000
000001a0: 0000 0000 0000 0000 0000 0000 0000 0000
000001b0: 0000 0000 0000 0000 0000 0000 0000 0000
000001c0: 0000 0000 0000 0000 0000 0000 0000 0000
000001d0: 0000 0000 0000 0000 0000 0000 0000 0000
000001e0: 0000 0000 0000 0000 0000 0000 0000 0000
000001f0: 0000 0000 0000 0000 0000 0000 0000 0000
00000200: 0000 0000 0000 0000 0000 0000 0000 0000
00000210: 0000 0000 0000 0000 0000 0000 0000 0000
00000220: 0000 0000 0000 0000 0000 0000 0000 0000
00000230: 0000 0000 0000 0000 0000 0000 0000 0000
00000240: 0000 0000 0000 0000 0000 0000 0000 0000
00000250: 0000 0000 0000 0000 0000 0000 0000 0000
00000260: 0000 0000 0000 0000 0000 0000 0000 0000
00000270: 0000 0000 0000 0000 0000 0000 0000 0000
00000280: 0000 0000 0000 0000 0000 0000 0000 0000
00000290: 0000 0000 0000 0000 0000 0000 0000 0000
000002a0: 0000 0000 0000 0000 0000 0000 0000 0000
000002b0: 0000 0000 0000 0000 0000 0000 0000 0000
000002c0: 0000 0000 0000 0000 0000 0000 0000 0000
000002d0: 0000 0000 0000 0000 0000 0000 0000 0000
000002e0: 0000 0000 0000 0000 0000 0000 0000 0000
000002f0: 0000 0000 0000 0000 0000 0000 0000 0000
00000300: 0000 0000 0000 0000 0000 0000 0000 0000
00000310: 0000 0000 0000 0000 0000 0000 0000 0000
00000320: 0000 0000 0000 0000 0000 0000 0000 0000
00000330: 0000 0000 0000 0000 0000 0000 0000 0000
00000340: 0000 0000 0000 0000 0000 0000 0000 0000
00000350: 0000 0000 0000 0000 0000 0000 0000 0000
00000360: 0000 0000 0000 0000 0000 0000 0000 0000
00000370: 0000 0000 0000 0000 0000 0000 0000 0000
00000380: 0000 0000 0000 0000 0000 0000 0000 0000
00000390: 0000 0000 0000 0000 0000 0000 0000 0000
000003a0: 0000 0000 0000 0000 0000 0000 0000 0000
000003b0: 0000 0000 0000 0000 0000 0000 0000 0000
000003c0: 0000 0000 0000 0000 0000 0000 0000 0000
000003d0: 0000 0000 0000 0000 0000 0000 0000 0000
000003e0: 0000 0000 0000 0000 0000 0000 0000 0000
000003f0: 0000 0000 0000 0000 0000 0000 0000 0000

network_body._body_endoder.seq_layers.0.weight f4 [256, 19]
-0.11980761 -0.017895008 0.20668262 -0.16345291 0.03160279 0.039282933 -0.06560077 0.28969705
0.23351932 -0.0123346485 -0.05159397 -0.07200461 -0.19873205 0.35678697 -0.12256302 -0.020851646
-0.64758384 0.1488616 -0.28507596 -0.010839996 -0.29038766 0.010548098 -0.46905717 -0.0015757383
0.1279745 0.22706297 -0.22419873 -0.030839432 0.04878493 -0.27340582 0.030566791 -0.010437366
0.12792933 0.13670874 0.12505497 0.22558476 0.021075513 -0.22094943 0.11725737 -0.061555356
0.15718484 -0.19565685 -0.06592553 -0.15641183 0.05874396 -0.31962952 0.44350603 -0.020592244
-0.016197966 -0.0013290803 -0.08478543 -0.22366309 0.022418972 0.21821025 0.01717351 0.06022072
-0.083158836 0.10337888 -0.54780376 -0.3534024 0.0018425265 0.2170509 0.014637128 -0.011896085
0.016658796 0.09871362 -0.20808692 -0.17261069 -0.37836388 0.13587269 -0.049053233 -0.15860453
0.1273526 -0.22519389 0.22958113 0.12640594 -0.080708764 0.19724102 0.2984531 -0.35525557
-0.27013075 0.39852306 -0.29073173 -0.16119677 0.03145422 0.1491084 0.2685808 -0.62330097
0.10302011 0.30439493 0.25491437 0.19006374 -0.36153212 0.233603 -0.28961614 0.23078337
-0.43627402 0.094538614 -0.006117771 -0.1258428 -0.05664469 0.2728609 -0.035340913 0.2558787
0.28590167 0.037577465 0.09100825 -0.36467263 -0.1193237 0.07264876 0.46567488 -0.112066366
0.2652847 0.21622089 -0.41076383 0.1796292 -0.048117414 -0.27356502 -0.055956796 -0.3611547
-0.6647364 -0.19394381 0.22044048 0.47628942 0.023124471 0.24620499 -0.23110281 -0.6388705
0.037797578 0.38476583 0.3361606 0.20377922 -0.020853417 0.3070867 0.20913558 0.102612056
0.13762462 -0.016869932 -0.6140088 -0.13070658 -0.07614345 -0.39043218 -0.1501164 0.015175574
0.11981023 -0.24089906 -0.38737646 -0.1773069 -0.20859686 -0.19816163 0.07129671 -0.067130886
-0.11745931 -0.07202308 0.35695025 -0.124694996 0.026084332 0.07299654 0.20420326 -0.16777596
-0.2573802 0.0020432507 -0.024932494 0.19529434 0.17410547 0.36598143 -0.13648 -0.09413229
-0.13391563 -0.12544742 0.013825222 0.27066514 -0.06775889 -0.020097682 -0.062311366 0.12605184
0.07209297 0.12139494 0.4783189 -0.2661916 -0.13348684 0.27917773 0.1553133 0.052997995
0.4347524 0.2017858 -0.07940389 0.076018594 -0.22891007 0.11521998 0.13277525 -0.2361314
0.1704129 -0.19631025 0.29441908 0.28097084 0.15578796 -0.17039664 -0.24522743 0.22635902
-0.13570005 -0.010553947 -0.18320733 -0.09802411 0.10786045 0.17505708 -0.22946216 -0.10496478
-0.06312004 0.043056402 -0.57804906 -0.02895911 -0.17777357 -0.19165665 -0.3907156 0.46972364
0.08837083 -0.48271737 0.28183156 0.3522113 0.01900956 -0.052915875 0.04284045 0.029067595
-0.11486907 -0.4273767 0.12551375 0.38040116 -0.28958172 0.10434455 0.1883281 -0.011486784
0.21372558 -0.072971165 -0.07420721 -0.25396293 0.013853244 0.39338717 -0.34435254 0.0654672
-0.449691 0.20594335 0.124273464 -0.07562453 -0.49622506 0.6691267 0.31955853 0.11388147
-0.09780383 -0.021624515 -0.4197847 -0.44569135 0.17198199 -0.055858888 -0.3995372 -0.24433249
00000000: b15d f5bd 8d98 92bc 9ca4 533e 3360 27be
00000010: ed71 013d 24e7 203d b259 86bd 2c53 943e
00000020: b01f 6f3e 4417 4abc 3354 53bd 2777 93bd
00000030: 6a80 4bbe c8ac b63e 5202 fbbd 12d1 aabc
00000040: 0ec8 25bf 2d6f 183e 7af5 91be 3d9a 31bc
00000050: b1ad 94be eed1 2c3c 4328 f0be 0189 ceba
00000060: bf0b 033e 3283 683e 5a94 65be faa2 fcbc
00000070: b5d2 473d d9fb 8bbe 3567 fa3c 7c01 2bbc
00000080: e8ff 023e 60fd 0b3e 690e 003e b1ff 663e
00000090: 8ea6 ac3c 9140 62be a224 f03d 7821 7cbd
000000a0: 10f5 203e 455a 48be f703 87bd 6c2a 20be
000000b0: 829d 703d 7ba6 a3be 3913 e33e 11b1 a8bc
000000c0: 99b1 84bc 8934 aeba fca3 adbd f007 65be
000000d0: fea7 b73c 8272 5f3e 76af 8c3c 00aa 763d
000000e0: 2e4f aabd 4eb8 d33d de3c 0cbf 29f1 b4be
000000f0: ee80 f13a 9742 5e3e 91d0 6f3c cce7 42bc
00000100: 0778 883c 5e2a ca3d bd14 55be dbc0 30be
00000110: e9b8 c1be 3622 0b3e 0bec 48bd 3a69 22be
00000120: b868 023e 3a99 66be 5117 6b3e 8f70 013e
00000130: a34a a5bd 8df9 493e d8ce 983e 0fe4 b5be
00000140: 944e 8abe 370b cc3e cada 94be c410 25be
00000150: 24d6 003d dfaf 183e 6c83 893e a790 1fbf
00000160: 35fc d23d a7d9 9b3e 2384 823e 12a0 423e
00000170: bd1a b9be a035 6f3e 9148 94be 7a52 6c3e
00000180: 4f5f dfbe 769d c13d 9577 c8bb efdc 00be
00000190: 4304 68bd 6db4 8b3e a2c1 10bd 8802 833e
000001a0: b461 923e d4ea 193d 8962 ba3d 5fb6 babe
000001b0: fc5f f4bd e0c8 943d f06c ee3e 0d83 e5bd
000001c0: 65d3 873e 0269 5d3e a34f d2be b8f0 373e
000001d0: c416 45bd b710 8cbe f432 65bd 45e9 b8be
000001e0: 2a2c 2abf 3599 46be 26bb 613e 35dc f33e
000001f0: 886f bd3c 291d 7c3e 37a6 6cbe 048d 23bf
00000200: a2d1 1a3d 0700 c53e 3e1d ac3e 80ab 503e
00000210: c9d4 aabc 783a 9d3e a327 563e 4526 d23d
00000220: 78ed 0c3e d032 8abc ae2f 1dbf f2d7 05be
00000230: 19f1 9bbd bae6 c7be 1db8 19be f9a2 783c
00000240: 115f f53d 3eae 76be 3556 c6be f18f 35be
00000250: 6a9a 55be e2ea 4abe 0204 923d eb7b 89bd
00000260: 828e f0bd d680 93bd 2fc2 b63e 1760 ffbd
00000270: cfae d53c 367f 953d a91a 513e 76cd 2bbe
00000280: 56c7 83be 0fe8 053b 3b3f ccbc 3dfb 473e
00000290: b448 323e eb61 bb3e 6ac1 0bbe 6ec8 c0bd
000002a0: 2e21 09be 4a75 00be 2f83 623c 9f94 8a3e
000002b0: 2cc5 8abd e5a3 a4bc 343a 7fbd bc13 013e
000002c0: 7ba5 933d e99d f83d 37e6 f43e 444a 88be
000002d0: c6b0 08be 62f0 8e3e 730a 1f3e 6d14 593d
000002e0: de97 de3e f0a0 4e3e 829e a2bd a3af 9b3d
000002f0: 6767 6abe 74f8 eb3d 3cf6 073e 6ecc 71be
00000300: b880 2e3e 8e05 49be 19be 963e 69db 8f3e
00000310: e186 1f3e 757c 2ebe e61c 7bbe a9ca 673e
00000320: f4f4 0abe 76ea 2cbc b49a 3bbe ddc0 c8bd
00000330: f1e5 dc3d 2a42 333e 21f8 6abe c6f7 d6bd
00000340: 1445 81bd e95b 303d 06fb 13bf a83b edbc
00000350: 460a 36be a441 44be e00b c8be 9e7f f03e
00000360: c4fb b43d bb26 f7be 3a4c 903e 0a55 b43e
00000370: f0b9 9b3c 51be 58bd 7879 2f3d 2a1f ee3c
00000380: 7a40 ebbd 1ed1 dabe ad86 003e f1c3 c23e
00000390: 0e44 94be 98b2 d53d 15d9 403e 1033 3cbc
000003a0: e1da 5a3e e871 95bd f3f9 97bd 6e07 82be
000003b0: b7f8 623c 0b6a c93e fa4e b0be ab13 863d
000003c0: e63d e6be d0e2 523e 1683 fe3d 09e1 9abd
000003d0: 3611 febe e34b 2b3f 2d9d a33e b03a e93d
000003e0: 604d c8bd e525 b1bc 05ee d6be a831 e4be
000003f0: 0c1c 303e 4acc 64bd 2490 ccbe 4c32 7abe

network_body._body_endoder.seq_layers.2.bias f4 [256]
0.0 0.0 0.0 0.0 0.0 0.0 0.0 0.0
0.0 0.0 0.0 0.0 0.0 0.0 0.0 0.0
0.0 0.0 0.0 0.0 0.0 0.0 0.0 0.0
0.0 0.0 0.0 0.0 0.0 0.0 0.0 0.0
0.0 0.0 0.0 0.0 0.0 0.0 0.0 0.0
0.0 0.0 0.0 0.0 0.0 0.0 0.0 0.0
0.0 0.0 0.0 0.0 0.0 0.0 0.0 0.0
0.0 0.0 0.0 0.0 0.0 0.0 0.0 0.0
0.0 0.0 0.0 0.0 0.0 0.0 0.0 0.0
0.0 0.0 0.0 0.0 0.0 0.0 0.0 0.0
0.0 0.0 0.0 0.0 0.0 0.0 0.0 0.0
0.0 0.0 0.0 0.0 0.0 0.0 0.0 0.0
0.0 0.0 0.0 0.0 0.0 0.0 0.0 0.0
0.0 0.0 0.0 0.0 0.0 0.0 0.0 0.0
0.0 0.0 0.0 0.0 0.0 0.0 0.0 0.0
0.0 0.0 0.0 0.0 0.0 0.0 0.0 0.0
0.0 0.0 0.0 0.0 0.0 0.0 0.0 0.0
0.0 0.0 0.0 0.0 0.0 0.0 0.0 0.0
0.0 0.0 0.0 0.0 0.0 0.0 0.0 0.0
0.0 0.0 0.0 0.0 0.0 0.0 0.0 0.0
0.0 0.0 0.0 0.0 0.0 0.0 0.0 0.0
0.0 0.0 0.0 0.0 0.0 0.0 0.0 0.0
0.0 0.0 0.0 0.0 0.0 0.0 0.0 0.0
0.0 0.0 0.0 0.0 0.0 0.0 0.0 0.0
0.0 0.0 0.0 0.0 0.0 0.0 0.0 0.0
0.0 0.0 0.0 0.0 0.0 0.0 0.0 0.0
0.0 0.0 0.0 0.0 0.0 0.0 0.0 0.0
0.0 0.0 0.0 0.0 0.0 0.0 0.0 0.0
0.0 0.0 0.0 0.0 0.0 0.0 0.0 0.0
0.0 0.0 0.0 0.0 0.0 0.0 0.0 0.0
0.0 0.0 0.0 0.0 0.0 0.0 0.0 0.0
0.0 0.0 0.0 0.0 0.0 0.0 0.0 0.0
00000000: 0000 0000 0000 0000 0000 0000 0000 0000
00000010: 0000 0000 0000 0000 0000 0000 0000 0000
00000020: 0000 0000 0000 0000 0000 0000 0000 0000
00000030: 0000 0000 0000 0000 0000 0000 0000 0000
00000040: 0000 0000 0000 0000 0000 0000 0000 0000
00000050: 0000 0000 0000 0000 0000 0000 0000 0000
00000060: 0000 0000 0000 0000 0000 0000 0000 0000
00000070: 0000 0000 0000 0000 0000 0000 0000 0000
00000080: 0000 0000 0000 0000 0000 0000 0000 0000
00000090: 0000 0000 0000 0000 0000 0000 0000 0000
000000a0: 0000 0000 0000 0000 0000 0000 0000 0000
000000b0: 0000 0000 0000 0000 0000 0000 0000 0000
000000c0: 0000 0000 0000 0000 0000 0000 0000 0000
000000d0: 0000 0000 0000 0000 0000 0000 0000 0000
000000e0: 0000 0000 0000 0000 0000 0000 0000 0000
000000f0: 0000 0000 0000 0000 0000 0000 0000 0000
00000100: 0000 0000 0000 0000 0000 0000 0000 0000
00000110: 0000 0000 0000 0000 0000 0000 0000 0000
00000120: 0000 0000 0000 0000 0000 0000 0000 0000
00000130: 0000 0000 0000 0000 0000 0000 0000 0000
00000140: 0000 0000 0000 0000 0000 0000 0000 0000
00000150: 0000 0000 0000 0000 0000 0000 0000 0000
00000160: 0000 0000 0000 0000 0000 0000 0000 0000
00000170: 0000 0000 0000 0000 0000 0000 0000 0000
00000180: 0000 0000 0000 0000 0000 0000 0000 0000
00000190: 0000 0000 0000 0000 0000 0000 0000 0000
000001a0: 0000 0000 0000 0000 0000 0000 0000 0000
000001b0: 0000 0000 0000 0000 0000 0000 0000 0000
000001c0: 0000 0000 0000 0000 0000 0000 0000 0000
000001d0: 0000 0000 0000 0000 0000 0000 0000 0000
000001e0: 0000 0000 0000 0000 0000 0000 0000 0000
000001f0: 0000 0000 0000 0000 0000 0000 0000 0000
00000200: 0000 0000 0000 0000 0000 0000 0000 0000
00000210: 0000 0000 0000 0000 0000 0000 0000 0000
00000220: 0000 0000 0000 0000 0000 0000 0000 0000
00000230: 0000 0000 0000 0000 0000 0000 0000 0000
00000240: 0000 0000 0000 0000 0000 0000 0000 0000
00000250: 0000 0000 0000 0000 0000 0000 0000 0000
00000260: 0000 0000 0000 0000 0000 0000 0000 0000
00000270: 0000 0000 0000 0000 0000 0000 0000 0000
00000280: 0000 0000 0000 0000 0000 0000 0000 0000
00000290: 0000 0000 0000 0000 0000 0000 0000 0000
000002a0: 0000 0000 0000 0000 0000 0000 0000 0000
000002b0: 0000 0000 0000 0000 0000 0000 0000 0000
000002c0: 0000 0000 0000 0000 0000 0000 0000 0000
000002d0: 0000 0000 0000 0000 0000 0000 0000 0000
000002e0: 0000 0000 0000 0000 0000 0000 0000 0000
000002f0: 0000 0000 0000 0000 0000 0000 0000 0000
00000300: 0000 0000 0000 0000 0000 0000 0000 0000
00000310: 0000 0000 0000 0000 0000 0000 0000 0000
00000320: 0000 0000 0000 0000 0000 0000 0000 0000
00000330: 0000 0000 0000 0000 0000 0000 0000 0000
00000340: 0000 0000 0000 0000 0000 0000 0000 0000
00000350: 0000 0000 0000 0000 0000 0000 0000 0000
00000360: 0000 0000 0000 0000 0000 0000 0000 0000
00000370: 0000 0000 0000 0000 0000 0000 0000 0000
00000380: 0000 0000 0000 0000 0000 0000 0000 0000
00000390: 0000 0000 0000 0000 0000 0000 0000 0000
000003a0: 0000 0000 0000 0000 0000 0000 0000 0000
000003b0: 0000 0000 0000 0000 0000 0000 0000 0000
000003c0: 0000 0000 0000 0000 0000 0000 0000 0000
000003d0: 0000 0000 0000 0000 0000 0000 0000 0000
000003e0: 0000 0000 0000 0000 0000 0000 0000 0000
000003f0: 0000 0000 0000 0000 0000 0000 0000 0000

network_body._body_endoder.seq_layers.2.weight f4 [256, 256]
-0.008859051 0.094806455 -0.009784098 0.0624109 -0.0007386474 0.028286148 -0.015704708 -0.056555033
-0.13186406 -0.020495236 0.06929692 0.07372571 0.015435169 -0.0637256 0.002603409 -0.0053578233
0.08959098 -0.052677706 0.060977973 -0.18359923 0.0048508625 -0.05571924 -0.08209653 -0.07436553
-0.029658658 -0.011679184 -0.04552277 -0.029931594 -0.014106669 -0.010022426 0.03883585 -0.06939521
-0.093640976 -0.004885385 -0.03872264 0.01193947 -0.035979837 -0.0094786305 0.042837795 -0.07916875
0.04119333 -0.00021125768 -0.02787403 0.01729624 -0.035786815 0.1273281 0.011758779 -0.02803417
-0.037531618 -0.041577883 0.009434078 0.027420545 -0.039054558 -0.09037431 0.08053235 0.029709155
-0.034998685 0.079583645 -0.101056814 -0.010923966 0.043525055 0.050327472 -0.009528406 0.031164687
0.06412785 -0.025556209 0.007753432 0.054998852 -0.029393114 -0.06240188 0.118888326 0.003370674
0.029066162 0.07795924 0.11271992 -0.017004432 -0.026059894 -0.0452266 0.0012729793 -0.02006689
0.09302038 -0.033719447 -0.015968652 -0.10415757 0.06190584 -0.020011976 -0.101398766 0.11861114
0.0030153259 -0.04340313 -1.6969103e-05 0.23866422 0.0593372 0.04962166 0.040555518 -0.010929462
0.018829986 0.10178736 -0.00831729 0.007844178 -0.010129601 0.025636509 -0.05053263 -0.06022763
-0.07782416 0.0025370165 0.02738233 -0.09475673 -0.07864453 -0.09099587 -0.009751127 -0.035254233
0.057027865 -0.011321187 0.037444193 -0.057425108 -0.06388197 -0.06386838 0.005952626 -0.0023842128
-0.106466405 0.042400945 0.048867375 -0.016548373 0.00582568 0.045650862 0.022622164 0.1086346
0.059142355 -0.045758612 -0.11050684 -0.0012663837 -0.08125323 0.09491484 0.025782423 0.05025091
-0.028045809 -0.09773027 0.03128042 0.051469162 -0.003768553 0.012614758 -0.019823793 0.043338105
0.036959875 -0.0710156 0.022671267 -0.060052358 -0.097841874 -0.100870185 0.014778375 0.05795876
0.07514477 0.080452465 -0.032487575 0.010816022 -0.0023298052 0.024946287 -0.03400323 -0.02554746
-0.03474308 0.06451055 -0.010641452 -0.05963225 -0.033816807 0.036154725 -0.016074358 0.08460685
0.013918437 0.048302565 0.0029373274 -0.07453136 0.13795078 -0.029570498 0.13300306 -0.05708312
-0.04617996 0.012996793 -0.078700006 0.07817088 0.08433875 -0.0341123 -0.0048826784 -0.11071638
-0.06298007 0.018630695 -0.050110355 -0.07099826 -0.07715047 -0.1211756 0.015774323 -0.07097248
-0.040982578 -0.008863328 -0.13355182 -0.031215696 0.13468373 0.023131356 0.05969794 0.0015716761
0.052452195 0.027195062 0.037442774 0.08470763 -0.05177254 0.05466387 0.017627047 -0.102929465
-0.087323345 0.050170273 0.042373065 -0.006723623 0.02532788 0.011640319 -0.019873615 -0.013877816
-0.06053565 0.013631162 0.009088976 -0.024112735 -0.07406873 0.010835562 0.013270833 0.020024251
-0.08316763 -0.07449761 -0.055795744 -0.12759107 0.063084856 0.06851409 -0.036486056 -0.005193062
0.06776263 -0.036813732 -0.07406435 0.072182104 -0.07038458 0.022094972 0.016652888 0.029221306
-0.087592945 0.04232326 -0.041851554 -0.02643767 0.06823913 -0.054729912 0.009951722 0.015863027
0.07088334 -0.04369071 0.027349241 0.056913476 -0.004990123 0.03456198 0.0029343658 0.044355765
00000000: 8e25 11bc e329 c23d 7b4d 20bc 92a2 7f3d
00000010: caa1 41ba 5ab8 e73c 29a7 80bc 40a6 67bd
00000020: 5f07 07be a0e5 a7bc 8beb 8d3d 81fd 963d
00000030: cbe3 7c3c 9182 82bd f59d 2a3b ae90 afbb
00000040: 7a7b b73d 94c4 57bd 0ac4 793d 7001 3cbe
00000050: fcf3 9e3b dc39 64bd 3a22 a8bd f44c 98bd
00000060: b7f6 f2bc 0c5a 3fbc 1676 3abd 1a33 f5bc
00000070: a91f 67bc 1a35 24bc 5712 1f3d 131f 8ebd
00000080: d7c6 bfbd 9415 a0bb a29b 1ebd c49d 433c
00000090: 985f 13bd 424c 1bbc af76 2f3d 3a23 a2bd
000000a0: 56ba 283d 0d85 5db9 1458 e4bc d8b0 8d3c
000000b0: 3295 12bd 4c62 023e e5a7 403c eaa7 e5bc
000000c0: c1ba 19bd 924d 2abd 6491 1a3c 0da1 e03c
000000d0: acf7 1fbd 2b16 b9bd 25ee a43d 9d60 f33c
000000e0: c85a 0fbd c0fc a23d e0f6 cebd 6ffa 32bc
000000f0: 5447 323d 2e24 4e3d 081d 1cbc 164d ff3c
00000100: 7655 833d 415b d1bc 8010 fe3b 7a46 613d
00000110: d4c9 f0bc 1d99 7fbd b97b f33d 87e6 5c3b
00000120: 291c ee3c 18a9 9f3d b4d9 e63d e14c 8bbc
00000130: 8f7b d5bc 873f 39bd 19da a63a 5263 a4bc
00000140: 7881 be3d 671d 0abd b1d0 82bc 9050 d5bd
00000150: fa90 7d3d 28f0 a3bc 28aa cfbd 66ea f23d
00000160: c69c 453b 7bc7 31bd df58 8eb7 6564 743e
00000170: 900b 733d 1540 4b3d 8b1d 263d 7c11 33bc
00000180: 5841 9a3c e475 d03d 3e45 08bc de84 003c
00000190: a0f6 25bc a803 d23c 4efb 4ebd 3fb1 76bd
000001a0: 4662 9fbd 1344 263b e850 e03c d10f c2bd
000001b0: 6210 a1bd 0b5c babd 31c3 1fbc be66 10bd
000001c0: 0d96 693d 807c 39bc 155f 193d 9736 6bbd
000001d0: 8dd4 82bd 6dcd 82bd 3f0e c33b 7440 1cbb
000001e0: 0f0b dabd 9dac 2d3d 2829 483d 7490 87bc
000001f0: 59e5 be3b 66fc 3a3d 1e52 b93c d17b de3d
00000200: 413f 723d 626d 3bbd 6951 e2bd c9fc a5ba
00000210: 1868 a6bd b662 c23d a935 d33c e6d3 4d3d
00000220: 53c0 e5bc cf26 c8bd e61f 003d 54d1 523d
00000230: d4f9 76bb 21ae 4e3c 8265 a2bc 4c83 313d
00000240: 3d63 173d a070 91bd 18b9 b93c 76f9 75bd
00000250: 5261 c8bd 0795 cebd ff20 723c 2a66 6d3d
00000260: 80e5 993d 43c4 a43d b111 05bd af35 313c
00000270: a5af 18bb 285c cc3c f946 0bbd e848 d1bc
00000280: c34e 0ebd 1b1e 843d 7c59 2ebc f240 74bd
00000290: 7e83 0abd fa16 143d 5fae 83bc 5b46 ad3d
000002a0: 280a 643c e9d8 453d 2d80 403b e6a3 98bd
000002b0: f842 0d3e d43d f2bc f431 083e fdcf 69bd
000002c0: 3327 3dbd 80f0 543c 782d a1bd 0e18 a03d
000002d0: cbb9 ac3d 57b9 0bbd e0fe 9fbb 45bf e2bd
000002e0: b2fb 80bd 669f 983c 8440 4dbd 8967 91bd
000002f0: 1101 9ebd ea2a f8bd 2739 813c 055a 91bd
00000300: 59dd 27bd 7e37 11bc cfc1 08be 0fb8 ffbc
00000310: 88ea 093e f87d bd3c d485 743d b300 ce3a
00000320: 1dd8 563d 2ec8 de3c 985d 193d 327b ad3d
00000330: 710f 54bd 39e7 5f3d 9966 903c afcc d2bd
00000340: 95d6 b2bd 587f 4d3d 618f 2d3d d651 dcbb
00000350: 6a7c cf3c 09b7 3e3c fecd a2bc c75f 63bc
00000360: 3bf4 77bd 3d55 5f3c eee9 143c 1288 c5bc
00000370: 59b1 97bd a487 313c e86d 593c e609 a43c
00000380: ca53 aabd 3492 98bd 148a 64bd 3ca7 02be
00000390: a232 813d 1d51 8c3d 6772 15bd 902a aabb
000003a0: 22c7 8a3d ffc9 16bd 0daf 97bd 36d4 933d
000003b0: ca25 90bd 8400 b53c a36b 883c 8561 ef3c
000003c0: ee63 b3bd 285b 2d3d 896c 2bbd d093 d8bc
000003d0: f5c0 8b3d 792c 60bd 8c0c 233c 2ef3 813c
000003e0: 492b 913d 08f5 32bd 840b e03c 1b1e 693d
000003f0: 3084 a3bb dd90 0d3d 7d4e 403b 64ae 353d
